checkpoints/cnn_baseline.pt (torch, 630142 bytes, 10 tensors)

conv1.weight f4 [16, 1, 3, 3]
00000000: b3d3 8d3e 9022 c13e 2aa9 ec3d c6b7 133e
00000010: aeb1 d63e d156 3dbe e569 bebe 84a8 003f
00000020: 1cc3 603e 1e7e a1be 3fac f03e 6bd5 7d3e
00000030: 94f6 9e3e 3a87 5d3e f1c6 af3e 8c2e 083d
00000040: c419 de3e 4562 883e b925 423d 6c87 313e
00000050: 0d6a dabd f0f6 0a3e 6f54 ddbb 9254 8f3e
00000060: 063f 2cbe 75d9 0bbe bd4a d8bd 4189 6cbe
00000070: daad 28bc 8dbf c0be 4b74 bb3e 880a 6bbe
00000080: 1856 8d3e bc0d c63d 40bd b7bd 67f3 653e
00000090: e8ac c2bc 3b45 a83e f6a5 a43d 1ca4 7abe
000000a0: c8be bf3d cc44 aebd 3684 d43e 6da9 803c
000000b0: c2ca 263b 50c5 84bd ac2c 8f3e d6b3 053d
000000c0: 65f4 603e f9c7 1abe 8534 a5be 7335 9ebd
000000d0: fd72 47be 4754 ad3e 92c6 dc3d 77c9 493e
000000e0: 937b 913d 78d8 1ebc 3fb7 8a3e eebc 8bbe
000000f0: 570b e2bc f31a 86be 3984 823c 830e 98bd
00000100: 4a03 1d3e d76c a4bd 633a 9f3e f837 3fbe
00000110: d0e3 7abe 5b64 61be eeaa ad3e 4406 953d
00000120: 4892 c83e 36cb 76be 11a3 a7be 63a3 46be
00000130: dc6d 2ebe 4c1e 133e 6726 653e 6c45 b23e
00000140: 7ea9 22be 69f1 0ebe b8f0 a63e a3e7 cdbd
00000150: 2e61 833e 5073 71bd cb7a 8e3e 07c5 7fbe
00000160: fd3e 4ebe 156d 103e 9160 d03d b996 e9bd
00000170: 2177 193e 3568 903e 585a 82be e0c5 5abe
00000180: 4019 bc3e e3a0 f5bd eaff 1abe c60a adbd
00000190: 39d7 443c f8ac 133e 46fd 0e3e 1775 5ebd
000001a0: 85b7 7a3d d341 80bd 5b4b fcbd 8b9e 00be
000001b0: 6e42 38be 38ab 3fbe 0797 f83e 662e 7a3e
000001c0: 3447 2e3e 334a 8fbe af83 bdbd 60f7 9fbd
000001d0: 60d8 893d f89b 18be 3c45 993a a3e9 c3bd
000001e0: 01de ee3d e07e 003d bc36 a13d 2e57 b3bd
000001f0: ab27 06bd 9c8e 64bd 4686 ebbd 147b 8fbe
00000200: cf42 b53e d3ba bdbd 189c 803e 6cf7 f23d
00000210: e292 95be a969 533e 240f c1bd d1e1 88bd
00000220: 1428 42be 002e 80be bb14 4c3e 2079 183d
00000230: 4add 653e 923b 1fbe 6e1c b03e f796 14be
0.27700576 0.37721682 0.11555703 0.14425573 0.41932434 -0.18490149 -0.37190166 0.50257134
0.21949428 -0.31541532 0.47006413 0.24788444 0.310475 0.21633616 0.34331468 0.033247516
0.43379033 0.26637474 0.047399256 0.17336816 -0.10664759 0.13570762 -0.00675445 0.2799421
-0.16820917 -0.13657172 -0.1056113 -0.23099233 -0.010295356 -0.37646142 0.36612162 -0.22953236
0.27604747 0.096705884 -0.089716434 0.22456132 -0.023764089 0.3286532 0.08039467 -0.24476665
0.093625605 -0.08509216 0.4150712 0.015705789 0.0025450443 -0.06482947 0.2796377 0.032642208
0.21968229 -0.15115346 -0.32266632 -0.077250384 -0.19477458 0.3385336 0.10780062 0.19705759
0.07103648 -0.009695165 0.2709293 -0.2729258 -0.027593298 -0.26192436 0.01593219 -0.07424643
0.15333286 -0.08028572 0.31099233 -0.18673694 -0.24500966 -0.22010939 0.33919472 0.07276586
0.39174104 -0.24100956 -0.32741597 -0.19398265 -0.17034096 0.14367026 0.2237793 0.3481859
-0.15884969 -0.13959278 0.3260553 -0.10053947 0.2566008 -0.05894786 0.2782806 -0.24977504
-0.20141216 0.14104111 0.101746686 -0.11405701 0.1498685 0.28204504 -0.25459552 -0.21364546
0.36738014 -0.11993577 -0.15136686 -0.084493205 0.012014204 0.14421451 0.13963804 -0.054310884
0.061210174 -0.06262555 -0.123190604 -0.1256048 -0.17994091 -0.18717659 0.48552725 0.24431762
0.1701935 -0.27986297 -0.09253632 -0.07810855 0.067307234 -0.14903247 0.0011693607 -0.09566047
0.11663438 0.031370997 0.07871768 -0.087568626 -0.032752674 -0.055800065 -0.1150022 -0.2802359
0.35402533 -0.092641495 0.2511909 0.11863598 -0.29213625 0.20645775 -0.09426716 -0.06683696
-0.18960601 -0.25035095 0.19929783 0.03722489 0.22447696 -0.15550068 0.3439669 -0.14510714

conv1.bias f4 [16]
00000000: c535 a0bc a34b 7ebb 3c36 a23c b724 883e
00000010: 678e 903e 6640 3abe 76ee 843c 1d2e 043e
00000020: 4df8 e83d 4ce1 afba 6188 9a3e d4a5 82bf
00000030: a809 503d 2da7 56be 86d9 3d3d b1c0 4cbf
-0.01955689 -0.0038802407 0.019801252 0.2659051 0.28233644 -0.18188629 0.016226988 0.12908216
0.113754846 -0.0013418584 0.30182174 -1.0206857 0.05079046 -0.2096221 0.046350025 -0.79981524

conv2.weight f4 [32, 16, 3, 3]
00000000: b3d8 063e 90e9 36be 360a 913e db6b 75bd
00000010: d8bd 3cbe d9e6 903e 0577 ce3b 8b74 29be
00000020: 91e6 093f f891 96bd f229 24bc ee41 573c
00000030: 35bf 543e d90c f5bc 79f5 a2bd 731a b5bc
00000040: 2230 6fbd 1825 523d a2c4 6d3d edb8 21be
00000050: 6702 2c3c 442a dc3c d40a cdbd cc37 b4bd
00000060: c444 3a3d 7d4b 62bd 218f 163d ffc6 8d3d
00000070: c6a2 c73c 1ac2 b53c e63c a43d 2471 4d3d
00000080: d339 683d d29d 3c3e 67ea 80bc 53a8 a4bc
00000090: df89 61be c30d 1b3d 6b84 4a3d f9a9 2abe
000000a0: 63fd 9dbd 31bc 24bd d0a7 743e 69d9 ab3c
000000b0: dc52 b2bc c397 6abb 273f e6bd 2261 13be
000000c0: 1be9 073c 7d44 e13d 0d55 ef3b 5af7 023e
000000d0: a838 bfbb 0cb9 dfbd 4072 c5bd 359a 393e
000000e0: 5f1d 1d3e 7bbf 27be 0152 e13d 85e8 f8bb
000000f0: c3d5 9cbe 77a3 9d3d 358f bdbc f2fe 483d
00000100: 35ea fa3b f269 143e 3929 1b3e a102 813d
00000110: 2150 c4bd 4d5d 73bd 6770 a63d 22aa 853c
00000120: 282a 9e3c 3d6f 183e 4cbb d83d d756 b6be
00000130: 6d47 38bd c1ad 22be 0054 d03d 1a02 99bd
00000140: ffeb 0bbd 89e8 0d3c 6b70 71be 3483 c83b
00000150: 0fbf 2d3d c035 76be 4292 83bd e239 b23d
00000160: 9ddd 84be 7863 203d 83db c2be fd22 bb3c
00000170: 0e6d 923d 42e6 82be 1593 2fbc f68c f4bc
00000180: ee0b 8dbc 14a5 323c bd04 ff3d 1099 d33d
00000190: c4b8 b5bd dba3 08be 833a 033e f014 4cbe
000001a0: 63ca 33bd 7bdf 1c3e aec6 29be 4273 69bd
000001b0: 8aeb c53c bf3d f3bd 2334 a73d 3215 f0bc
000001c0: fe94 bfbd 3f63 7c3d c2c7 033e f209 0dbe
000001d0: e245 82bd 40be 8e3d 518c febd 51d5 29be
000001e0: 6d32 1e3d c70c 61be 2bc3 babd 27f0 9e3c
000001f0: 44f7 56be 8ece debd 8914 f0bc f0a7 b3bd
00000200: 0cf3 e53d 6cca 1f3d 24e2 f0bd bf77 c23c
00000210: 5496 82bc 0ad5 5ebe 0095 3c3d b740 38bd
00000220: 4b67 2bbe 35e6 b4bd 9629 8a3c 4b5d a5bd
00000230: 23b7 16bd 63a8 4a39 c26e 0cbe 1530 9bbd
00000240: 7649 943e a80f 943e 3340 95be f8af dc3e
00000250: f31c 4fbe 8a20 67be e5b3 b13e 87f8 4cbc
00000260: 6cd8 8cbe 383e b43e 7fe6 8e3e 6ac1 39bd
00000270: 5552 9fbd 9580 1c3d db18 aebd 39a5 a6bd
00000280: a96e 753e 9103 9fbd 3fd7 0b3e 03c5 b3bd
00000290: ef5c 19be 76c3 0dbd 516d 94bd 0090 3abe
000002a0: 5391 abbe 0121 53bd b64b 8ebc 0f59 b0bd
000002b0: 29fd 47bd 6e60 2bbe 86c5 dabd 1da5 9cbd
000002c0: 835f 07be 0243 6dbc c5a4 07bd 4610 b2bd
000002d0: c075 833e ad19 113d 864e 14be b033 863e
000002e0: 76b3 e4bd d418 1fbe c543 1d3e 6d72 b9bb
000002f0: 7a3c 08be 6586 3cbc d210 d1be 6031 a2be
00000300: 72f7 7f3d 9dd5 18be c5ef 05bf dfbc 89be
00000310: 9453 a0be fb55 1bbe 4d7c eb3e 545d 233e
00000320: 9af1 36be ebef c93d 3a33 69bd af8d f6bd
00000330: f649 0a3e 8a6a c83c 4973 c3bd cd63 bbbc
00000340: 6949 6fbd 2bb4 4dbe 7cd6 703e e073 58bd
00000350: bc6d a3be b70b 41be 9172 2fbc aae9 20be
00000360: 0f15 3a3f b852 ef3d e0df 3dbe ed73 3cbe
00000370: 8da4 06bd d12d c0be 08b7 e0bd 760f ce3d
00000380: c88f 23be 116d 313e f430 2abe aa20 28be
00000390: d784 cd3d 3f91 1ebe 4293 f7bc 67eb 93be
000003a0: 1fdf dd3d aae7 243c 3363 fb3c f912 b2bc
000003b0: 3d50 3cbe 7a76 89bd ed75 463d 487c 25be
000003c0: 69d2 54bc 15a5 b73d 3a05 a8bd 053f 8f3d
000003d0: b761 63be 16f2 d8be 2211 09bd 1b2d c7be
000003e0: 3173 c8be 69d0 9abe 0d68 37be aacc 39be
000003f0: 6f4a 513e ea8e b73d a024 5cbd 330d 653c
0.13168602 -0.17862535 0.28328103 -0.059917312 -0.18431795 0.28301123 0.0063008093 -0.16548364
0.5386744 -0.0735206 -0.010019766 0.013138277 0.20776065 -0.029913353 -0.079569764 -0.022107339
-0.058395512 0.051304907 0.05804885 -0.157932 0.01049862 0.026875623 -0.10011831 -0.08799705
0.045475736 -0.055247772 0.036757592 0.06922721 0.024369609 0.022187281 0.08019428 0.050156727
0.05669577 0.18419579 -0.015736772 -0.020099794 -0.2202525 0.03785492 0.04944269 -0.16666402
-0.07714345 -0.040218536 0.2389214 0.020977693 -0.021768026 -0.0035796023 -0.11242514 -0.14392522
0.008295323 0.10999391 0.00730384 0.1278967 -0.0058356114 -0.10923967 -0.09640932 0.18125232
0.15343235 -0.16381638 0.11001969 -0.007596078 -0.30631837 0.07697194 -0.023139575 0.04907126
0.007657314 0.1449354 0.15152444 0.062993295 -0.09585596 -0.05941515 0.08126908 0.016316477
0.019307211 0.14886184 0.10582599 -0.3561313 -0.044989992 -0.15886594 0.10172272 -0.07471104
-0.03416061 0.008661398 -0.2357804 0.0061191563 0.042418536 -0.24043941 -0.06424381 0.087024465
-0.25950328 0.03915736 -0.380581 0.022843832 0.07149707 -0.25566298 -0.010716219 -0.029852372
-0.017217603 0.0109036155 0.12452076 0.10331929 -0.08873132 -0.13343756 0.12815289 -0.19929862
-0.043894183 0.15319626 -0.16579697 -0.056994684 0.024160165 -0.118770115 0.08164241 -0.029306982
-0.0935459 0.061618086 0.1286917 -0.13773325 -0.06360985 0.06969881 -0.12429107 -0.1658528
0.03862231 -0.2197753 -0.091192566 0.019401623 -0.20992762 -0.10879241 -0.029306667 -0.08772266
0.11227998 0.039011404 -0.11761883 0.02373874 -0.015940823 -0.21760955 0.046040535 -0.044983592
-0.16738622 -0.08832971 0.016865533 -0.08074435 -0.036795747 0.0001932695 -0.13714126 -0.0757753
0.28962296 0.28918195 -0.29150543 0.43103004 -0.20225887 -0.22571006 0.3470756 -0.012510425
-0.27508867 0.3520372 0.2791023 -0.04535047 -0.077793755 0.038208563 -0.085008346 -0.081369825
0.23967995 -0.07764352 0.13656329 -0.087778114 -0.14976858 -0.034610234 -0.07247413 -0.18218994
-0.3350931 -0.051545147 -0.017370086 -0.086107366 -0.048825417 -0.16736004 -0.10682206 -0.0764868
-0.13220029 -0.014481308 -0.03311612 -0.0869451 0.25675774 0.035424877 -0.1448308 0.2621131
-0.11167042 -0.15536815 0.15357883 -0.0056593926 -0.1330432 -0.0115066515 -0.40833145 -0.31678295
0.06249184 -0.14925237 -0.52318984 -0.2690191 -0.31313765 -0.15169518 0.4599327 0.1595357
-0.17865601 0.09860214 -0.05693362 -0.12038743 0.13504776 0.024464864 -0.09543473 -0.022874737
-0.05841962 -0.2008826 0.2351932 -0.052844882 -0.31919658 -0.18852125 -0.010708467 -0.15714136
0.7268838 0.11685699 -0.18542433 -0.18403597 -0.03287177 -0.37534955 -0.109724104 0.10061543
-0.15972817 0.17326762 -0.16620237 -0.1641871 0.10035103 -0.15485094 -0.030221585 -0.28890535
0.108335726 0.010064999 0.03068695 -0.021737562 -0.18389983 -0.06712051 0.048452307 -0.16160691
-0.012989619 0.08967034 -0.08204122 0.06994442 -0.22205244 -0.42372197 -0.033463605 -0.389016
-0.39150384 -0.3023713 -0.17910786 -0.1814448 0.2043855 0.089628056 -0.053745866 0.013980198

conv2.bias f4 [32]
00000000: 94d7 d83c a11c 713d 3229 a5bd e2a3 8ebe
00000010: 0fca 66bd a19f 71bc 9be4 393d d485 62be
00000020: 44b7 5ebd 5336 c53d ff71 16be 8012 08be
00000030: 66b2 1a3d bdbc b23d c66b 9b3b 29d8 81bd
00000040: 1389 b2bb 77fa 7dbd 46e9 9c3d fde2 28bd
00000050: a6ff 5a3d 3572 e0bd 604d a1bc 975e ffbc
00000060: 19e3 0cbe 6418 e6bb 3d97 793d 8524 b4bd
00000070: 7c1e 1e3d c1b0 9cbd 6d46 50bd f305 493c
0.026469983 0.058865193 -0.08064498 -0.27859408 -0.05634504 -0.014747531 0.04538403 -0.22121364
-0.054373994 0.09629502 -0.14691924 -0.13288307 0.03776779 0.08727405 0.004743072 -0.063400574
-0.0054484694 -0.06200644 0.07661681 -0.041232098 0.05346646 -0.10959283 -0.019690216 -0.031173034
-0.13758506 -0.0070219506 0.060935248 -0.08796028 0.03860329 -0.07650901 -0.050848413 0.012269485

conv3.weight f4 [64, 32, 3, 3]
00000000: e7c9 053e a8b2 053e 2fbe 2c3d 4970 513e
00000010: b52d 1c3e 67ba 993d b263 4a3e 56be 1a3e
00000020: 4824 1c3d f9e2 933a f27e 2abe 4518 41bc
00000030: 8723 db3d 365d a93d 7a43 173e 9b45 1d3e
00000040: 2aa8 213e c1ea cd3d 7ff1 a8bc 63fb a9bd
00000050: 8f48 e9bc 9623 883d 1a18 87bd 10fc 6b3d
00000060: 59dc f93c d740 c7bd 6880 0fbc ef1b eb3d
00000070: 45fb 353d 249f 9bbd 3791 393e ddcf b83d
00000080: 3506 4dbd 09c5 d5bb ff1b 6f3d 44f0 07bc
00000090: a8bb 163e 5b93 e73d 5048 b53c dfac 5d3d
000000a0: e908 f93d 8f48 483c 72e1 303e 042f 0e3d
000000b0: 8dda 783d 1dfa 0abe 5a2b 15be 290a 56bd
000000c0: a7f0 3ebe 9fa2 0fbe 250f bebd bf38 a7bd
000000d0: 7460 acbd ff99 27bd 53c4 7a3c afd4 803d
000000e0: fc09 8bbc faec b0bc 2a63 e83b 9bbc dd3c
000000f0: b114 f93d cdfe 473e 38b3 443e c0e2 853c
00000100: 7ce3 553c 6385 2cbd 6b08 783d 7ca6 04bd
00000110: bd91 babd 9d04 753d dae9 5d3c db83 ef3c
00000120: b2ae 003c 7dda 52bc 2672 64bd e779 8fbd
00000130: 55ed 0c3a e963 1a3d 61ea 85bc 4120 f6bc
00000140: 5c44 a03c 1eb4 4abc abb2 d8bb dd9f 89bd
00000150: 4c04 26bd 5717 81bd bd4b 04bd 2ddb d3bd
00000160: 563d b2bd b59b febd 37e2 403d c4f1 803d
00000170: 365d 283d 78f5 36be f539 00be f904 68be
00000180: c955 16be a5ec ecbd e4e3 40be 265f a53c
00000190: 77e2 debd 4704 88be eef4 6d3c 737d 60bd
000001a0: 210a 46be e232 4e3e 5171 5b3e 88a8 bb3d
000001b0: bb21 933b a517 8dbc 1934 d93c c1ad 5c3d
000001c0: 42cf 7cbc 8cff 0fbd 00e5 8fbc 6c59 acbd
000001d0: 93bc a1bd 1df9 29be 3f60 fbbc 908b a4bd
000001e0: 605d 06be e54d 09be 4c5f a5bd 8ceb 04be
000001f0: a6f9 cbbd bc93 79bd 43cd f0bc 4462 6fbc
00000200: 6598 48bc e057 d7bd 9be2 6abd 2bfc dcbd
00000210: c102 3fbd 7e74 203d cb8b 58bd 9968 aabd
00000220: 750c 9cba cffb 313d ca59 8dbe 78fc a0be
00000230: 772b e9bd efb6 50be 63b0 96be 7a2f 88bd
00000240: b870 6bbd 9a2f d5bd 6f39 613d c65f bdbd
00000250: 2973 a4bd 887a 6abb d3b7 433d 8a73 c93d
00000260: c666 fa3d cc76 103d 37eb 4cbd d1c8 78bd
00000270: 5bb8 843d 1f30 d73c e7bf 96bd ca55 d93b
00000280: 08f6 013d 8078 83bc 62ce 13be e212 18be
00000290: 9f66 52be af95 11be 093d 75be bd2c 72be
000002a0: cb4d 113c 2430 d0bd 818f 84be 81d1 7c3d
000002b0: deed 1f3d 0d60 4fbd 4a65 b6bd db90 cd3b
000002c0: c9e6 2fbd aacd 1cbd e8c0 c0bd 3dad 05bd
000002d0: 55a2 3a3c 37d6 9c3d ea82 943b 9a31 03bc
000002e0: cc10 12bc 17bf f83d 1948 cc3d ac83 17ba
000002f0: bbe7 ea3d 6100 92bd 6bd3 e5bd 31f0 04bd
00000300: 74dc c13a 8991 a2bc 10c7 32bd d9b7 8c3d
00000310: 8581 43bd f7f6 c73c 5ab0 35bd 4339 a3bc
00000320: f32e c53c b48f 69bd 3087 793c 5e81 9bbc
00000330: 1ec2 e13c a91d 0ebc c671 d03c 4c5b 653d
00000340: 00d9 bebc c599 6dbd 824d 613d a7f0 0ebd
00000350: 34c5 573c 1130 073d 34e7 0bbc 2c20 3f3d
00000360: 3273 c03d 866b 833a f8cf f23c d122 5b3d
00000370: 2076 833d 9551 4f3d e791 5bbd a999 e0bb
00000380: 10f6 ac3c e6b5 7d3d e5b4 f53c f76e 8b3d
00000390: f656 a33c 45cd d73c bde0 8c3c b250 9b3d
000003a0: f9a5 8d3d 52da cf3c 7da0 52be e750 f2bc
000003b0: bd2c febd eb4f 40bd c97a e8bd cb89 efbd
000003c0: 732e c3bd d215 4c3c d679 9bbd a3c1 c03d
000003d0: 868b 9b39 aa1c b53c 1e28 bf3d 34c3 0e3d
000003e0: 89e9 b63c 5142 3d3d 45da 83bc 562c 443a
000003f0: 0f4d 593e 320d 3d3d b449 f13c 5718 b13d
0.13065301 0.13056433 0.04217356 0.2045299 0.15251811 0.075062566 0.19764593 0.1511167
0.038120538 0.0011282853 -0.16649988 -0.011785571 0.10700136 0.08269732 0.14771834 0.15358584
0.15786806 0.100545414 -0.020622967 -0.08299901 -0.028476981 0.066474125 -0.06596394 0.057613432
0.030500578 -0.09729164 -0.008758642 0.11479937 0.044429082 -0.07598713 0.18121801 0.09024022
-0.050054748 -0.0065237326 0.05837631 -0.00829703 0.14720023 0.11307403 0.022129208 0.05411994
0.121599026 0.012224331 0.172735 0.034712806 0.0607553 -0.13571973 -0.14567319 -0.052255783
-0.18646489 -0.14026879 -0.09280232 -0.0816512 -0.084168345 -0.040918346 0.015305596 0.06290566
-0.016972534 -0.021597374 0.0070918994 0.027067473 0.1216215 0.19530793 0.19208992 0.016343474
0.013054725 -0.042119395 0.060554903 -0.032385334 -0.091098286 0.059818853 0.013544524 0.029237678
0.007854151 -0.0128694745 -0.055772923 -0.07005673 0.00053759414 0.037692938 -0.016347112 -0.030044677
0.019563846 -0.012372045 -0.0066130958 -0.067199446 -0.04053144 -0.0630328 -0.032298792 -0.10344539
-0.08703105 -0.124320425 0.047090735 0.06296113 0.041104518 -0.17867076 -0.12522109 -0.22658147
-0.14681162 -0.11568574 -0.18836933 0.020186972 -0.108830385 -0.26565763 0.014523728 -0.054807138
-0.19339801 0.20136598 0.21429946 0.09163004 0.004490105 -0.017223189 0.0265141 0.053876642
-0.0154302735 -0.035155818 -0.01756525 -0.08415493 -0.07897296 -0.16598935 -0.030685542 -0.08034432
-0.13121557 -0.1340862 -0.08074817 -0.12980479 -0.09959726 -0.060931906 -0.029394751 -0.014610831
-0.012243365 -0.10514808 -0.057345014 -0.10790285 -0.046633486 0.039173596 -0.052867692 -0.08320732
-0.0011905568 0.043453034 -0.27607566 -0.31442618 -0.113852434 -0.20382284 -0.29431447 -0.066496804
-0.057480544 -0.1040947 0.054986414 -0.09246783 -0.080297776 -0.00357786 0.04778273 0.098364905
0.12226634 0.035269544 -0.050029006 -0.06073839 0.064804755 0.026268063 -0.07360821 0.0066325413
0.031728774 -0.01604867 -0.14434198 -0.14850953 -0.2054696 -0.14217256 -0.23949064 -0.23649879
0.008868645 -0.10165432 -0.25890735 0.061723236 0.039045207 -0.05062871 -0.08906038 0.0062733716
-0.042944703 -0.038282074 -0.09411794 -0.032635916 0.011391242 0.07658046 0.0045322077 -0.008007431
-0.0089151375 0.121458225 0.09974689 -0.00057798135 0.1146998 -0.071289785 -0.112219654 -0.032455627
0.0014790432 -0.019844787 -0.043646872 0.06871004 -0.04773094 0.024409754 -0.044357635 -0.019924765
0.024070239 -0.05702181 0.015229985 -0.018982586 0.027558383 -0.008674064 0.025444876 0.05599527
-0.023296833 -0.058007974 0.055005558 -0.034897473 0.0131695755 0.033004824 -0.00853901 0.04666154
0.09396972 0.0010026551 0.029640183 0.0535 0.06419015 0.050614912 -0.05360594 -0.006854255
0.021113425 0.06194105 0.029993484 0.06808274 0.019938927 0.026342997 0.017197007 0.07583751
0.069164224 0.025372658 -0.20569034 -0.029579593 -0.12410877 -0.046951216 -0.113515444 -0.11696204
-0.09530344 0.012456374 -0.07591598 0.09411933 0.00029667857 0.022108395 0.093338236 0.03485413
0.022328155 0.046205822 -0.01609529 0.0007483413 0.21220802 0.046155162 0.02945409 0.086472206

conv3.bias f4 [64]
00000000: 7421 b1be 5bb9 1a3d 7769 52bd b0a6 383e
00000010: dd60 0d3d 8496 043e fe30 d63b 1ed6 82bd
00000020: c62b 4ebd 409c 38bc 8de7 64bd 2588 2d3c
00000030: 418b 333c c675 d6bb 260e 983d 4c48 8bbd
00000040: 901a 41bd 9849 b5bb 9c6f 62bd 20d9 09bd
00000050: 3bf6 58bc 38d3 e53d 7e29 26bd 4a49 c3bc
00000060: 4b79 8abc 7f2b f1bc 1683 54bd 395d 38bd
00000070: 4776 79bc 4a51 3bbe 9597 a9bd 45a8 88bc
00000080: 3492 01be 0bd4 a0bd c6fe 1ebd 00b4 e43c
00000090: 3e17 b33d d1fc 0d3b 1499 adbd 1320 7fbe
000000a0: 6875 70bd 0bed 20bc c973 6abd 6884 903c
000000b0: e85a 5abd 64df b2bd af2f a0bc c011 28bd
000000c0: 53ce eebc ac00 8abc 074d 49bd 0fd5 abbd
000000d0: 03c6 1abd 974a 6bbc 458e 96bd f88c 4e3d
000000e0: 21f1 7dbd 2615 a3bd f12c 03bd 05fc cebd
000000f0: 07fc 38bd b89e 0bbb 0b29 83bd 8be2 54bb
-0.34595835 0.037774425 -0.05137011 0.18032336 0.034516204 0.12948042 0.006536602 -0.06388496
-0.050334714 -0.011267722 -0.055884887 0.010591541 0.010958494 -0.0065448014 0.074245736 -0.06800899
-0.047144473 -0.0055324547 -0.05528222 -0.033654332 -0.0132423 0.112219274 -0.040566914 -0.023838658
-0.01690354 -0.029439686 -0.051882826 -0.04501078 -0.015225953 -0.18292728 -0.08280865 -0.0166818
-0.12653428 -0.07852944 -0.03881719 0.027917862 0.087446675 0.0021665583 -0.08476463 -0.24914579
-0.058705717 -0.00982214 -0.057239328 0.017641261 -0.05330935 -0.08734015 -0.019553987 -0.041032553
-0.029151117 -0.016846023 -0.049145725 -0.08390247 -0.037786495 -0.014361045 -0.073513545 0.050427407
-0.061997537 -0.07963018 -0.03202528 -0.10106663 -0.045162227 -0.002130432 -0.06404313 -0.0032483663

fc1.weight f4 [128, 1024]
00000000: 7ca4 b9bc 8f31 aabc 00ef 18ba d53f 43bb
00000010: 1f00 b73c 2006 023a 5912 14ba 0b29 b6bc
00000020: 2a4e ad3c 543b d2bb 2df9 4f3c ac1d febc
00000030: 277a 293c 76c9 9e3c eb63 693c d3af a43c
00000040: 88bc 68bc 60ab b7bc 4ffb ab3b 1607 f73b
00000050: 188d 9bbc 606c 24bc 6dcd d1bb 9648 0dbc
00000060: ace3 743c 3cd5 b53c 82a5 463b 5084 96bc
00000070: 0caa 9fbc 721a dd3c ccd6 23bb 0f1b b7bc
00000080: 0b34 f0bc 6a1f dfbc e7e3 bd3c 7e6d d2bc
00000090: fd36 15bd 0fff f0bc d9c1 aabc 7d12 e4bb
000000a0: ffbb e0bc ac2a fe3b 916c 36bc 22c4 9bbc
000000b0: 0383 ccbc b840 82bc 8785 c73c 4b32 91bb
000000c0: 8029 743b 7898 14bd 9b3d 563c 0727 8cba
000000d0: ce7e d0bb a84a b2bb b51a 4cbc 6bf0 f7bc
000000e0: 7dd0 95bc f58e ea3b a36d 253d dd50 d3bc
000000f0: a628 093c 15a2 adbc 4bc3 fd3c 10ab 0fbb
00000100: 7e98 e8bc bed4 dcbc 50bb c63a 5e9d 3b3c
00000110: 2020 173c 74e5 0c3c 26b7 32bc 1ee8 b0bc
00000120: e09e b03b 0cf0 cabc ed23 1d3c 7da9 92bc
00000130: 0e7d e5bc b08a 5e3b b3ed c43b ae89 f4bc
00000140: 757b e8bc ccfc b5bc 7650 31bd cf38 9e3c
00000150: efc1 f3ba 48f6 a3bc 7a35 27bd 1b84 eebc
00000160: 8c80 993b 7dcd 65bc b7f0 91bb 8491 b5b9
00000170: 9e42 813c f022 a3bb bd58 023c 159d 10bd
00000180: 3c54 b43c 16f5 05bd 8911 75bc d93a 18bd
00000190: d493 823c 4c80 69bc 9755 16bd 49a3 bebc
000001a0: 564e 8c3c d575 763c 222f 823c 288b 12bd
000001b0: ac65 52bc 38fa 7aba 0070 02bc 7925 b3bc
000001c0: c6f8 c73c 984b d0bc 2cc5 6b3c c8b9 663c
000001d0: 2577 06bd 3dc5 dabc 604e ddbc 4ac4 893c
000001e0: 8bcb 08bd 2376 b8bb 79d2 7ebc cb5f 59bc
000001f0: 877a c8bc 1302 07bd 249a 06bd b3f1 18bc
00000200: b56a 8abb 421b 0a3b 1f28 8b3b 6082 9dbc
00000210: 70fd 8b3c 98a5 963c 4047 cabc f0ca da3c
00000220: a0dc 5dbb e047 dfba 3e98 f3bc e8e8 873c
00000230: 70f9 4e3c 90fc 013c 0c1f 613c 6a22 e1bc
00000240: c92b cd3c 1413 743c bf31 79bc c652 2b3c
00000250: e777 8cbc c57d 82bc 9985 01bc 16ce 593c
00000260: 61f7 363c 0089 89bc 6c85 02bd d493 b8bb
00000270: 83ea 9dbc 7188 03bc b6af 213c ad62 733c
00000280: 204d d83a 00ca 513c 28c8 bb3b d807 69bc
00000290: 4221 983c 3484 b3bc d082 1abb 0861 5ebc
000002a0: 408b 0a3b a865 d43c 5007 223c f08e 06bb
000002b0: d89f eebc dc85 b6bc e877 d4bb d00a 76bc
000002c0: 88ce c93b 1a77 fcbc 384b ee3c a077 1bbc
000002d0: 6e87 983c 98be b73c fa55 d13c 10a2 a9bb
000002e0: 40f3 8d3a 76af 823c 5cc2 bebc 008d 11bb
000002f0: 005d 573c c016 39ba 5c39 b6bc 983d 983b
00000300: e690 4bbc baad 573c c393 e3bc e071 5ebb
00000310: 8feb 27bc 5589 d7bb ff7d b63c 696a bcbb
00000320: 5140 edbb 4ceb 11bd 25cf acbc 01b0 ffbc
00000330: 5e07 7cbb 36e7 51bc 7a9f 4f3b dba3 9e3c
00000340: 184c dd3b 18ea b5bc 8bd5 ccbc 8504 a5bc
00000350: 740c 8fbc 4016 aa3b 8938 13bd 7b4e f5bc
00000360: 78cb b2bb 9635 afbc d364 603c f170 8c3b
00000370: 0a99 c63c 0451 6b3c ecb4 6abc c1a8 2ebc
00000380: b0f5 6f3c d48d e8bc 9d71 cb3a df7d 0dbd
00000390: b01b 5b3c 583d 26bc 1e67 8d3b 96f0 c53b
000003a0: c0ec 9f3a 8029 7f3b 00ea 8ebc 955c a3bb
000003b0: 0b8b 343c 2e63 6a3d d35d 72bc ffa7 a03a
000003c0: 9c96 62bc e983 2fbc 23ca afbc 2b3c 5ebc
000003d0: d7d0 04bd 1f1e cebc 1b5d 35bd 3301 dc38
000003e0: 9627 a3bc 65b7 2dbb 5279 a5bc 43b3 6ebc
000003f0: 984f 1cbc df15 d8bc 6bab 2dbd 395f bd3b
-0.02266144 -0.020775585 -0.00058339536 -0.0029792686 0.022338925 0.0004960019 -0.0005648486 -0.022236368
0.021155436 -0.006415764 0.0126936855 -0.031020008 0.010344065 0.019383173 0.014245014 0.02010337
-0.014205106 -0.022420585 0.005248464 0.0075386865 -0.018988177 -0.010035604 -0.0064026625 -0.008623263
0.014946859 0.022196405 0.0030311053 -0.018373638 -0.019490264 0.02699015 -0.0024999855 -0.02235177
-0.029321691 -0.02723666 0.023179961 -0.025686976 -0.036429394 -0.029418496 -0.020844387 -0.006960212
-0.027433394 0.0077565517 -0.011134283 -0.019014422 -0.024964815 -0.0159 0.024355663 -0.004431044
0.0037256181 -0.036278218 0.013076211 -0.0010692783 -0.0063627725 -0.0054410286 -0.012457539 -0.030266007
-0.018287892 0.007158155 0.04038776 -0.025795395 0.008371508 -0.02119545 0.030976912 -0.002192203
-0.028393026 -0.026956912 0.0015162025 0.0114510935 0.009223968 0.008599628 -0.010907924 -0.021595057
0.005390033 -0.024772666 0.009591085 -0.017903084 -0.028013732 0.0033957176 0.0060097813 -0.029850807
-0.028379181 -0.02221527 -0.043289624 0.019314198 -0.0018597225 -0.020014897 -0.040822484 -0.029115727
0.0046845134 -0.014026043 -0.0044537443 -0.00034631428 0.015778836 -0.00497853 0.007955727 -0.035306055
0.022012822 -0.032704435 -0.014957794 -0.037165496 0.01593963 -0.01425178 -0.03670272 -0.02327122
0.017127197 0.015042742 0.015891615 -0.03577724 -0.012841623 -0.00095740287 -0.007961273 -0.021868454
0.024410617 -0.02542667 0.014390271 0.01408238 -0.03282847 -0.026705379 -0.027014911 0.01681723
-0.03339724 -0.0056293174 -0.01555311 -0.013267468 -0.024472488 -0.032960963 -0.032861844 -0.009334969
-0.0042241463 0.0021073376 0.004246726 -0.019227207 0.017088622 0.018389508 -0.024692178 0.026708096
-0.0033853427 -0.001703497 -0.02973568 0.01659055 0.012632713 0.007933751 0.013740312 -0.02748223
0.025045292 0.014897127 -0.015209614 0.010456746 -0.017147018 -0.015929112 -0.007905387 0.013293764
0.011167378 -0.01678896 -0.031865522 -0.005632857 -0.019276863 -0.008028136 0.009868553 0.014855069
0.0016502477 0.012804508 0.0057306476 -0.0142230615 0.018570546 -0.021913625 -0.0023576505 -0.013572939
0.0021140128 0.02592738 0.009889439 -0.0020531975 -0.029128954 -0.022280626 -0.0064840205 -0.015017226
0.0061586536 -0.03081851 0.029088601 -0.00948897 0.018619265 0.02242975 0.025553692 -0.00517679
0.001082994 0.015952807 -0.023286037 -0.0022209287 0.0131447315 -0.000706058 -0.022244148 0.0046460144
-0.012424683 0.013163978 -0.02778042 -0.0033942387 -0.010249033 -0.0065776506 0.022276876 -0.0057499898
-0.007240333 -0.035624787 -0.021094868 -0.031211855 -0.003845654 -0.012811473 0.0031680749 0.019365242
0.006753456 -0.022206351 -0.025004169 -0.020143757 -0.017461993 0.0051906407 -0.035942588 -0.029944649
-0.0054563843 -0.021387856 0.013695913 0.0042859246 0.024242897 0.014362577 -0.014325362 -0.010660351
0.014645979 -0.028387941 0.001552153 -0.03454387 0.0133733 -0.010146461 0.004315271 0.006040643
0.0012201294 0.0038934648 -0.017445564 -0.004985402 0.011019479 0.05722349 -0.014792877 0.0012257098
-0.013829853 -0.010712602 -0.021458691 -0.01356415 -0.032425728 -0.025160847 -0.044278245 0.00010490641
-0.019916337 -0.0026507017 -0.020199452 -0.0145691065 -0.009540461 -0.026377616 -0.042399805 0.0057791737

fc1.bias f4 [128]
00000000: 3fb7 65bd 6cae 2bbc 77e1 cfbc 4921 01bd
00000010: f3f0 00bd e01a a5bc caa8 c23d e1b1 f6bc
00000020: a48e c3bd eda7 32bd cd40 2fbd ae8e 1ebd
00000030: e93a 20bc a2b7 8bbc 5187 fd3d 75dd 1bbc
00000040: c1e0 683e 97d1 7cbd 66e9 7ebd 3d89 193c
00000050: 0642 473e cef8 743e ca13 1ebd bcba a63d
00000060: 1560 8bbc b85a c3bc 689c cabb 3160 a33d
00000070: 7ad1 5b3e c206 80bd 9155 2e3e 1faa 4abe
00000080: 55b4 12bc e1e8 35bd 9feb 773c 441f 68bc
00000090: 0b85 033e 52c8 99bc f028 413e 7672 b73d
000000a0: ae84 b4ba dcf6 76bd ffbf 49bd 5ff8 97bd
000000b0: a6c5 d4bc 8402 85bd 7547 263c 98a4 9bbd
000000c0: b22f ffbc 7fc5 50bd fc6c 3cbd 640f 613b
000000d0: 7188 7239 c476 d4bd 5bbe 713e 2626 c339
000000e0: 2fb7 11bd c1b5 17bd 09cc 96bd c2ad 2b3e
000000f0: 6260 f4bc 3ea4 3cbd 10f7 52bc 33d1 57bc
00000100: c8d4 59bd f310 26bd 42c0 5bbc 3ffb 24bc
00000110: f762 5abd 9e8b ed3d bc98 4bbd 0860 a53e
00000120: 3fea 28bc e754 4abd 6bbf 90bc 7d2d 94bd
00000130: c1fa 403c 625e aebc 1404 2dbc be5e 843d
00000140: 021e bf3e d87a b2bb 2134 37bd 3259 5fbd
00000150: 2cfe b03e 8018 c838 5cdc 8cbd 02f9 41bd
00000160: 0317 65bd ce40 d9bc 4f85 a53d 9dce f2bc
00000170: 0cd3 ad3c a517 583d 8f1f 8dbb f865 2fbd
00000180: a55a 283e 552e 3abd 948c a93b ed5d 7e3c
00000190: 4519 983d ae08 3ebd 7730 68bd fc3d 40bd
000001a0: 34aa a5bc 4913 ed3b be4e 22bd 2bf1 f7bc
000001b0: 7879 1c3e 04fa 52bd 73a6 04bd 7b6a a63d
000001c0: e9d3 533e f296 48bd 3503 5c3e 5aee b2bc
000001d0: 2b7c 423e eb03 39bd 2caf f6bc fc50 783c
000001e0: cf3a 433e 7612 3a3c 6894 35bd 90e6 0a3e
000001f0: fe37 15bd 5ae1 693e 33df 12bd 1236 f0bb
-0.05608296 -0.010478597 -0.025376065 -0.031525884 -0.031479787 -0.020154417 0.0950485 -0.030114116
-0.09548691 -0.043617178 -0.04278641 -0.03871029 -0.00977967 -0.017055336 0.12379325 -0.009513249
0.22741987 -0.061723318 -0.062234305 0.009371099 0.1945878 0.23923036 -0.03859309 0.081410855
-0.017013589 -0.023846969 -0.006183196 0.079773314 0.21466628 -0.06251289 0.17024828 -0.19791459
-0.008954127 -0.044411544 0.01513186 -0.014167611 0.1284372 -0.018772278 0.18863273 0.089573786
-0.0013772452 -0.060294017 -0.049255367 -0.0742042 -0.025973152 -0.064946204 0.010148873 -0.07599753
-0.031150673 -0.050969597 -0.046002373 0.003434145 0.00023129747 -0.10374215 0.23607771 0.0003722172
-0.035575088 -0.03703857 -0.07363135 0.16765502 -0.029831115 -0.04605507 -0.012876287 -0.013172436
-0.05318144 -0.040543508 -0.013412537 -0.010069667 -0.053317036 0.115988955 -0.049706206 0.3229983
-0.010309755 -0.049397375 -0.0176694 -0.07235239 0.011778534 -0.02128524 -0.010560054 0.06463383
0.37327582 -0.005446773 -0.04472745 -0.054528423 0.34568918 9.541307e-05 -0.06877968 -0.047356613
-0.05593015 -0.02652016 0.08082067 -0.029639537 0.021218799 0.052756924 -0.0043067406 -0.042821854
0.16440828 -0.045454342 0.005174229 0.015525323 0.07426695 -0.046394996 -0.056686845 -0.046934113
-0.02022276 0.007234965 -0.039625876 -0.030266365 0.15280712 -0.051507965 -0.0323853 0.08125778
0.20686306 -0.048972078 0.21485598 -0.02184217 0.18992679 -0.045169752 -0.030112825 0.015156027
0.19065402 0.0113569405 -0.044330984 0.13564515 -0.03643035 0.22839871 -0.03585739 -0.0073306644

fc2.weight f4 [16, 128]
00000000: 7928 afbc be39 993d c888 473d ce7c 27bd
00000010: a762 8abd cc26 2c3d a058 2f3e 024b 003e
00000020: b5c7 e9bc 3266 0abe 99ed ad3d 7eaa 713d
00000030: a719 3bbc d919 9fbc de8d b73d 2fac 36bc
00000040: 95d7 043e 01c7 4ebc bb6b a43d 9acf 1f3e
00000050: 2924 153d c0e4 21bd 13a1 2a3d 1933 f4be
00000060: 7fc0 6cbd 8fe1 82bd 4dbe 2c3c 4f06 203d
00000070: 318f 2f3d 80b6 b8bd 5c61 853d 91d7 973d
00000080: 4db7 833c fb2b 76bc 063e 5d3b f0ef 553b
00000090: 05f0 42bd d27d 62bc 9363 ca3d 3852 afbd
000000a0: 6fcc 8abc c0b3 b9bc c244 ad3c 9928 75bc
000000b0: 101f 65bd 35da 70bc 188a 283d ba8d 5abe
000000c0: eadf 8b3c 3e8f abbd dc25 36bc 2838 143d
000000d0: bb93 0abc c93d 253e cf6f 293d 6c32 73bd
000000e0: 010a 64bd 85f1 853d 8f05 e5bc d99a 2f3e
000000f0: cd69 8c3b ef5c 86bc 09e0 a1bd e5cf 99bb
00000100: a989 bc3d 7038 cfbd d263 b73d df60 c63d
00000110: a192 8dbd 19a4 383c f4d5 1c3c 0d8f 81bd
00000120: 337b 48bd 6ba5 b63d 3af1 c9bc 81ab b53b
00000130: 26c5 d9bd 9969 81bc 2820 953d 21b0 4fbd
00000140: a2db 4a3e f1a9 40bc 1080 843d 87d1 83bd
00000150: f3bb d33d 755d 3bbd aa05 ed3c 4aca 23bd
00000160: affa e1bc 4894 373d 6c00 85bd 6f50 a1bd
00000170: 4d6f 0cbe d88b a43d fc74 babb 3dbf bc3c
00000180: 471d 343d de18 3fbb c25b acbd c280 3dbd
00000190: 87c8 433c 1cb6 9fbd 47da febc bd3c 4e3e
000001a0: ab3c 603d 643f 77ba 6e97 74bd 828a 583c
000001b0: 5b99 363d 8abb bc3c cf97 873c 3d1e e33a
000001c0: 7a5e 36be 1244 b3bc 3c4a 843d a2c6 2abd
000001d0: 36b5 193e b7d8 81bd 4935 a83d 166a 4fbd
000001e0: d73e ed3d 668d 313d 6ab6 ca3d 8c9f 8bbd
000001f0: 68e4 1dbd 248e bfbd 9daa 96bc 6bd1 333c
00000200: afd2 9939 db1a 4d3e 95d8 9fbd b524 833c
00000210: f518 f23c 3820 b9bd 207a b9ba c54e 10bc
00000220: 8f87 28bd b07c 10bc 2a8a e33c 43ee 843d
00000230: eada 6d3d 66a3 83bd e30c 993b b3aa c13c
00000240: 04e1 1cbc c767 e3bb 5583 acbd b828 c33d
00000250: 0626 d0b9 a10f 2bbb 3288 64bd 7530 373c
00000260: f198 443d 0f41 05bd 70f1 373d 0e20 0aba
00000270: 0cf8 973c 71e7 25bd 9887 84bc a1cd 433b
00000280: 228b edbc cbb2 aa3c 6de1 8d3d 554b 2bbc
00000290: af84 b8bc dc1c 8f3d 462a f73c fb65 ee3d
000002a0: 450d dc3c 435b 3f3d edad abbd f4e6 f8bc
000002b0: f436 df3c 0afb d9bc 550f 8fbd 381f 1039
000002c0: 03cc 32bd 6e95 853d 5223 b0bd 961c 5fbd
000002d0: c6e9 053d 8012 553d 687a 473c 3a4a a4bc
000002e0: c7ca 5d3c 5b12 a63c aa64 853d f2ea c2bb
000002f0: 6232 94bc 2df3 49bc 2355 ba3d bb84 893d
00000300: e625 9f3c 3d2d 053c b36d 963d efe0 67bc
00000310: e9bb 04bd d633 20bd 2a2a 17bd d499 333d
00000320: 61d8 afbc a7e4 f5bc 7da8 96bd 6a13 c13d
00000330: 18bf 4abc cbc0 1439 8a3d 8f3d 97f0 cebb
00000340: e294 423c 338a 94bb 5ece 64bd 3b93 793d
00000350: eea4 a9bc 5986 9abd 2a36 9f3d 58a1 59bd
00000360: 6cbd b439 7fdb 8ebc f60e ed3c 842e aabd
00000370: 8db9 1dbb 07b2 943d 4f69 8cbd 5f71 b63c
00000380: 06f2 d83d f4a3 90bc 72a7 973d 8582 ff3a
00000390: 795a cb3c b5d7 263d 6d66 56bc 29d4 0ebe
000003a0: 4eb1 86bd e480 a63d 8652 4c3d 9aa9 b83d
000003b0: 586c 81bc 931c 813d 947f 88b8 54cf a5bb
000003c0: e1b4 19bd 818e 083d b642 77bc 962f 41bc
000003d0: 01c2 1a3c be51 9bbd 5be3 9cbd ba72 93bc
000003e0: 99c4 cebc ef63 5e3b 7fb8 ce3a bc41 95bb
000003f0: 3d1e 933c 3240 463d 4904 0ebd e0fe 2abb
-0.021381604 0.074817166 0.04871443 -0.040890507 -0.06757098 0.042029187 0.17123652 0.12528613
-0.02853761 -0.13515547 0.08492584 0.059000485 -0.01141969 -0.019421505 0.08962606 -0.01114945
0.12972863 -0.012620688 0.080283605 0.15606537 0.036411438 -0.039524794 0.04165752 -0.47695234
-0.057800766 -0.06390678 0.010543418 0.039068516 0.042861167 -0.09019184 0.065127105 0.07414163
0.016078616 -0.015025134 0.0033758893 0.0032644235 -0.04759218 -0.013823943 0.098822735 -0.08560604
-0.016943185 -0.02266872 0.02115095 -0.0149632925 -0.055937827 -0.014700462 0.04114732 -0.21343127
0.017074544 -0.08376931 -0.011117425 0.036186367 -0.008458073 0.1613685 0.041366395 -0.059374258
-0.055673603 0.06540207 -0.027956752 0.17148913 0.0042850734 -0.016401736 -0.079040594 -0.0046939724
0.09205944 -0.101181865 0.08954586 0.096864454 -0.06912733 0.011269593 0.009572495 -0.06326113
-0.048945617 0.0891827 -0.024651159 0.0055441265 -0.10633306 -0.015797423 0.07281524 -0.05070508
0.19810346 -0.011759267 0.064697385 -0.064364485 0.10338583 -0.045743424 0.028933365 -0.03998784
-0.027585356 0.044819146 -0.06494221 -0.078766696 -0.13714333 0.080344856 -0.005690215 0.023040408
0.043973234 -0.002915911 -0.08415939 -0.04626537 0.011949665 -0.077984065 -0.031109942 0.20140357
0.054745357 -0.0009431748 -0.059714727 0.013216617 0.044579845 0.023038644 0.01655188 0.0017327737
-0.17809477 -0.021883044 0.064594716 -0.041693337 0.15010533 -0.06340163 0.08213288 -0.05063828
0.115842514 0.04334774 0.09898074 -0.068175405 -0.038547903 -0.09353283 -0.018391902 0.010975222
0.00029339406 0.20029776 -0.078049816 0.016008714 0.029552916 -0.09039348 -0.0014150776 -0.008807843
-0.041144904 -0.00881879 0.027775843 0.06490757 0.0580701 -0.0642765 0.0046707257 0.023640966
-0.009575132 -0.0069398615 -0.08423487 0.09529251 -0.0003970118 -0.0026101845 -0.05579395 0.011180987
0.04799742 -0.032532748 0.044907987 -0.0005269059 0.018550895 -0.040503923 -0.016177937 0.0029877203
-0.028997008 0.020837208 0.06927762 -0.010454972 -0.022524206 0.06987926 0.030171525 0.11640545
0.026861796 0.046717893 -0.08382783 -0.030383565 0.027247883 -0.026608963 -0.06985346 0.0001374454
-0.043651592 0.06522642 -0.08600487 -0.05447062 0.032693647 0.052019596 0.01217518 -0.020054925
0.013537115 0.020272424 0.06513341 -0.005948418 -0.01809043 -0.012326044 0.0909827 0.067147695
0.019427251 0.008128461 0.07345142 -0.014152749 -0.032405768 -0.039111935 -0.036905445 0.043847874
-0.021465482 -0.030016256 -0.07356355 0.09427531 -0.012374662 0.00014186201 0.069941595 -0.0063153016
0.011876317 -0.004533076 -0.05586087 0.060931426 -0.020708527 -0.07545156 0.07774003 -0.053132385
0.00034473406 -0.017438648 0.028937798 -0.083096534 -0.0024066896 0.072605185 -0.068560235 0.022270856
0.10593037 -0.017656304 0.074049845 0.0019493854 0.024823414 0.040733058 -0.013085944 -0.1394812
-0.06576787 0.08130053 0.049883388 0.09016724 -0.015798733 0.06304278 -6.5087486e-05 -0.005060116
-0.037526015 0.033339027 -0.015091589 -0.0117911305 0.009445668 -0.075839505 -0.07660552 -0.017999042
-0.02524023 0.0033934077 0.0015771537 -0.0045549553 0.017958755 0.048401065 -0.034672055 -0.0026091859

fc2.bias f4 [16]
00000000: 1a63 f93e ccf0 593b 4503 b73d c045 d33c
00000010: 468c d03e d757 96b8 7a46 203e 5b66 ac3d
00000020: fd79 c33e dfc6 f03c 382c 203e 8171 4a3d
00000030: e699 e03e dd17 ab3b 9658 413e 5cdc b83d
0.4870842 0.0033255098 0.089361705 0.025790095 0.4073202 -7.168919e-05 0.15651885 0.0841796
0.38179007 0.029391704 0.15641868 0.049424652 0.43867415 0.0052213506 0.18881449 0.09026405
