checkpoints/cnn_optuna_v1.pt (torch, 703704 bytes, 14 tensors)

layers.0.weight f4 [64, 1, 3, 3]
0	0x3e86b001	0.26306155
1	0x3ea2c619	0.31791762
2	0xbce56c70	-0.028005809
3	0xbe073b56	-0.13206229
4	0x3db5c0c0	0.08874655
5	0xbe7f2c73	-0.249193
6	0x3e2f10c2	0.17096236
7	0xbd8f2890	-0.069901586
8	0x3e993e27	0.2993023
9	0xbe587eae	-0.21142074
10	0xbe61d613	-0.22054319
11	0x3d9de62c	0.077099174
12	0xbd3e51b8	-0.04646465
13	0xbe9cb1fc	-0.3060454
14	0xbe0374c0	-0.12837505
15	0x3e39aae2	0.18131593
16	0xbe1a8648	-0.15090287
17	0xbe7d2fb3	-0.24725227
18	0x3dd81e6c	0.105526775
19	0xbda8bcfc	-0.08239171
20	0xbbd14740	-0.0063866675
21	0xbd9aa544	-0.07551053
22	0x3e7ec4e2	0.24879792
23	0x3e01256e	0.12611935
24	0xbd4c1f78	-0.0498347
25	0x3e7024f6	0.234516
26	0xbe2f4e66	-0.1711975
27	0x3e4ab17a	0.19794264
28	0x3d2bb438	0.041919917
29	0x3e2b11fe	0.16706082
30	0xbe7377fe	-0.23776242
31	0x3e8daea1	0.27672294
32	0x3e8c537d	0.27407447
33	0xbe42f9be	-0.19040582
34	0xbccfae70	-0.025351733
35	0xbe4bce48	-0.19902909
36	0x3e0b0cb2	0.13579062
37	0xbbe48300	-0.006973624
38	0x3e4cf486	0.20015153
39	0xbd285368	-0.041095167
40	0x3d365220	0.044511914
41	0x3e9c0e0d	0.3047947
42	0xbea18cd6	-0.31552762
43	0xbdb52240	-0.08844423
44	0x3e13d598	0.14436948
45	0x3cb19390	0.021676809
46	0xbe1e93ce	-0.1548607
47	0xbcf390b0	-0.029732078
48	0xbea9b3b6	-0.3314492
49	0x3e2c7182	0.16840175
50	0x3e8dd76d	0.2770342
51	0xbe835d9b	-0.25657353
52	0xbe726473	-0.23671131
53	0xbdc347dc	-0.095351905
54	0xbcc606d0	-0.02417317
55	0xbe674c4b	-0.22587697
56	0x3d35a788	0.044349223
57	0x3e5d9962	0.21640542
58	0xbe6419f6	-0.22275528
59	0xbd189700	-0.03725338
60	0x3dfdcaf4	0.12392226
61	0xbe266680	-0.16250038
62	0x3e07769e	0.13228843
63	0x3d66b018	0.05632028
64	0x3de5d8dc	0.11223003
65	0x3e33ba4e	0.17551538
66	0x3ea72c7d	0.3265113
67	0x3ea01f19	0.31273726
68	0x3ddd41ac	0.108035415
69	0xbdaf8720	-0.08570695
70	0xbe926ecc	-0.28600156
71	0xbd4106d8	-0.047125667
72	0x3e81a149	0.25318363
73	0xbe8e5b87	-0.27804205
74	0xbe23c61e	-0.15993544
75	0xbbcc0d00	-0.0062271357
76	0xbe812054	-0.25219977
77	0xbe87a236	-0.26490945
78	0xbe3c7828	-0.18405211
79	0xbe28a1ee	-0.16468021
80	0x3dd50050	0.1040045
81	0x3b1eee80	0.0024251044
82	0x3cdea170	0.027176589
83	0xbe7949c8	-0.24344552
84	0x3d411c48	0.04714611
85	0xbdf50206	-0.119632766
86	0xbe623db6	-0.22093853
87	0x3d3ef8f8	0.046624154
88	0x3e331b62	0.17490914
89	0xbe8457c8	-0.25848222
90	0x3d9af1c4	0.075656444
91	0x3e9e8743	0.30962572
92	0x3ea60f43	0.3243352
93	0x3e35d2c6	0.17756185
94	0x3ea2116f	0.31653926
95	0x3cb70cf0	0.022345036
96	0x3e10b10a	0.14130035
97	0x3e43e282	0.19129375
98	0x3c7daf80	0.015483737
99	0x3e31bb7a	0.17356673
100	0x3b9af6c0	0.004729122
101	0x3deb03e0	0.114753485
102	0xbe31db6e	-0.17368862
103	0x3e90491f	0.28180787
104	0xbc36b680	-0.01115191
105	0x3e250790	0.16116166
106	0xbde99c60	-0.11406779
107	0x3e79c45a	0.24391308
108	0xbe34e5d3	-0.17665796
109	0x3e9a33d1	0.30117658
110	0x3e8f8b81	0.2803612
111	0x3c0db6e0	0.008649558
112	0xbe946f4a	-0.28991157
113	0xbdf1db76	-0.11809437
114	0xbd4298b8	-0.047508925
115	0x3d9f6634	0.077831656
116	0x3e0e78ce	0.13913271
117	0xbe974300	-0.29543304
118	0x3e0d5380	0.13801384
119	0xbe1379eb	-0.14401977
120	0xbea77dbe	-0.3271312
121	0xbd2466f8	-0.04013726
122	0x3e847fcf	0.2587876
123	0x3e273a06	0.16330728
124	0xbd29cec0	-0.041456938
125	0xbd855be4	-0.06511667
126	0xbe2447f6	-0.16043076
127	0x3e86fabd	0.26363173
128	0x3e9373f1	0.28799394
129	0x3d881424	0.066444665
130	0xbe4b7f98	-0.19872892
131	0x3e8f36f1	0.27971604
132	0x3c4adc20	0.012381583
133	0x3e9e5763	0.30926046
134	0x3e114936	0.14188084
135	0xbcbdbb70	-0.023160666
136	0xbe8fb8e0	-0.28070736
137	0x3dadb070	0.084809184
138	0xbe3577ab	-0.17721431
139	0x3cd35df0	0.025801629
140	0xbe78bf2b	-0.24291675
141	0x3cccd250	0.025002629
142	0x3ea1a44d	0.31570664
143	0xbdbbdd50	-0.091730714
144	0x3e972415	0.29519716
145	0xbe6f3a93	-0.23362188
146	0xbd231ee8	-0.039824396
147	0xbdd93650	-0.106060624
148	0x3e160800	0.1465149
149	0xbcf21a80	-0.029553652
150	0xbd8e2fd4	-0.06942716
151	0x3e80b89f	0.25140855
152	0x3dba682c	0.091019005
153	0x3ea46fc9	0.32116535
154	0x3e9ea0b5	0.30981985
155	0xbe10935b	-0.14118712
156	0xbe347223	-0.17621665
157	0xbe87d31b	-0.26528248
158	0x3e6aaef2	0.22918299
159	0x3e477172	0.1947687
160	0x3e0686de	0.13137385
161	0xbc9ddd80	-0.019270658
162	0xbe6d675b	-0.23183958
163	0x3d260100	0.040528297
164	0x3db2636c	0.087103695
165	0xbdf8e4e6	-0.12153034
166	0x3e9836e9	0.29729393
167	0xbe1b5ba0	-0.15171671
168	0x3dd9db24	0.10637501
169	0xbc8ab450	-0.016931683
170	0xbe0f6636	-0.14003834
171	0xbea903aa	-0.33010608
172	0x3d17ba00	0.037042618
173	0x3e9e080f	0.30865523
174	0x3df851ec	0.12125
175	0x3ea0a36f	0.3137469
176	0xbe238d3b	-0.15971844
177	0xbe73802b	-0.23779361
178	0x3dc1e8ec	0.094682544
179	0xbe393ef3	-0.1809042
180	0xbdd1dd9c	-0.10247347
181	0x3d4bd908	0.049767524
182	0x3bb033c0	0.005377263
183	0xbdec1060	-0.11526561
184	0xbe5e06b0	-0.21682239
185	0xbe7f25e3	-0.24916796
186	0x3e383f72	0.17992952
187	0xbd3174a8	-0.043324143
188	0x3e365806	0.17807016
189	0xbe2c9898	-0.16855085
190	0x3e902e25	0.28160205
191	0xbe8b8506	-0.27249926
192	0x3d4a2ab8	0.049357146
193	0x3ea99d9b	0.33128056
194	0x3e72a63e	0.23696229
195	0x3e98da87	0.29854223
196	0x3e1564d2	0.14589241
197	0x3e350476	0.17677483
198	0x3d404fe8	0.046951205
199	0x3e9b41af	0.3032355
200	0xbe2ad280	-0.16681862
201	0xbdedb72c	-0.11607203
202	0x3dd7f0e4	0.10543993
203	0xbe7de048	-0.24792588
204	0x3ea79f9f	0.3273897
205	0x3e684eba	0.22686282
206	0xbe812c9f	-0.25229356
207	0xbe313568	-0.17305529
208	0x3d43acc8	0.0477722
209	0xbe438328	-0.19093001
210	0xbdd12e80	-0.10213947
211	0xbc273680	-0.010205865
212	0x3e1e71b8	0.15473068
213	0x3e870829	0.26373413
214	0x3de85360	0.113440275
215	0x3e0196d6	0.12655196
216	0xbc77e420	-0.015130073
217	0x3db101e0	0.08642936
218	0xbe2554e8	-0.1614567
219	0x3e98340d	0.29727212
220	0x3e1857e6	0.1487728
221	0x3e2db0fe	0.16962048
222	0x3e70ff12	0.23534802
223	0x3e742e12	0.238457
224	0xbe5f14ce	-0.2178528
225	0x3d29ca20	0.041452527
226	0xbe82059a	-0.253949
227	0xbe9b7836	-0.3036515
228	0x3dd4cf14	0.103910595
229	0x3db206ac	0.08692679
230	0xbe20ced0	-0.15703893
231	0xbd9cf3e0	-0.07663703
232	0x3da81050	0.08206236
233	0x3e847d3d	0.258768
234	0xbe67fa53	-0.22654085
235	0xbe450028	-0.19238341
236	0x3e096300	0.13416672
237	0xbd886894	-0.06660572
238	0x3e9a2b59	0.30111197
239	0x3d557308	0.052111655
240	0x3dc2bd90	0.095088124
241	0xbda0bb94	-0.07848278
242	0xbe915326	-0.2838375
243	0x3e9283bd	0.28616133
244	0x3de2f5d0	0.11082041
245	0x3d96fb9c	0.073722094
246	0x3e963807	0.2933962
247	0x3e0a121a	0.13483468
248	0xbe98e010	-0.29858446
249	0xbe040ca8	-0.12895453
250	0x3e616636	0.22011647
251	0x3e571752	0.2100499
252	0xbd987874	-0.074448496
253	0x3e4a800a	0.19775406
254	0x3e19688e	0.1498129
255	0xbe2587b0	-0.16165042

layers.0.bias f4 [64]
0	0xbe5f28b6	-0.21792874
1	0x3e33afe2	0.17547563
2	0x3e293546	0.16524228
3	0xbe233cc6	-0.15941152
4	0x3dd06644	0.101757556
5	0x3e1c99ba	0.15293017
6	0x3de32810	0.11091626
7	0xbdd710d6	-0.10501258
8	0x3e173d88	0.14769566
9	0xbe43714e	-0.19086191
10	0x3dbc1b50	0.09184897
11	0xbea7f232	-0.32801968
12	0x3de4d68c	0.11173734
13	0x3e36d13a	0.17853251
14	0xbe83d986	-0.25751895
15	0xbe3b8d30	-0.18315578
16	0x3e56bd9a	0.20970765
17	0x3d76b808	0.0602341
18	0x3de4b65c	0.11167595
19	0xbc5f1280	-0.013615251
20	0xbe300b4b	-0.17191808
21	0xbde13640	-0.109966755
22	0x3e87818d	0.26466027
23	0xbdb60690	-0.088879704
24	0x3e453986	0.19260225
25	0xbe11ca00	-0.14237213
26	0xbd86d6b4	-0.0658392
27	0xbe2fe083	-0.17175488
28	0x3d98a00c	0.074524015
29	0xbdaa349c	-0.08310816
30	0xbe258426	-0.16163692
31	0xbe8b9a0e	-0.27265972
32	0xbe2535f3	-0.16133861
33	0x3ea44e85	0.32091156
34	0xbe541a8b	-0.2071325
35	0x3d1507e0	0.036384463
36	0x3dd3576c	0.10319409
37	0xbe131968	-0.1436516
38	0x3d9aa0c4	0.07550195
39	0xbe0f83f6	-0.14015183
40	0x3e8df631	0.27726892
41	0x3e9d7eb9	0.30760744
42	0xbe4ac28b	-0.19800775
43	0x3e95fef7	0.29296085
44	0xbde4e3e0	-0.11176276
45	0xbdd7c386	-0.1053534
46	0x3ea297f1	0.31756547
47	0x3e21ce50	0.15801358
48	0x3d1865a0	0.037206292
49	0xbe4f4cb8	-0.2024411
50	0xbe3ca28e	-0.18421385
51	0x3c2ef320	0.010678083
52	0xbda39140	-0.079866886
53	0xbd63e560	-0.05563867
54	0xbe79df73	-0.24401645
55	0x3e0be15a	0.13660184
56	0xbe67a59b	-0.22621767
57	0xbaef9800	-0.0018279552
58	0x3e9aaf49	0.30211857
59	0x3e1a1820	0.15048265
60	0xbc9ae210	-0.018906623
61	0xbde8079c	-0.113295764
62	0x3e98f0b3	0.2987114
63	0xbe5f9df3	-0.21837597

layers.3.weight f4 [16, 64, 3, 3]
0	0x3b39af50	0.0028333254
1	0xbd072ecc	-0.033003613
2	0xbc01cccc	-0.007922363
3	0x3ca2b076	0.019859534
4	0x3bfef608	0.007780794
5	0xbc10e574	-0.008843768
6	0x3b72ea70	0.0037066005
7	0x3ca580a8	0.02020295
8	0x3b2c7c50	0.0026319213
9	0xbc5afc96	-0.013365885
10	0x3cce7f9a	0.02520733
11	0xbd1c6416	-0.038181387
12	0xbbc99720	-0.0061520487
13	0x3ca581d2	0.020203505
14	0xbc82efce	-0.015983488
15	0x3937af00	0.00017517433
16	0x3d03bb4d	0.032161046
17	0x3bc0a758	0.005879324
18	0xbce2e8de	-0.02769893
19	0xbd09e29c	-0.033663377
20	0x3c36b1f0	0.011150822
21	0x3cd4ab22	0.025960509
22	0x3c5ac22c	0.013351958
23	0xb991f180	-0.00027836487
24	0x3cc90a3a	0.02454101
25	0x3ce2a9aa	0.027668793
26	0x3c24a294	0.010048527
27	0xbd061214	-0.032732084
28	0xbd1bd608	-0.038045913
29	0x3bec28e8	0.007207025
30	0x3c3ea1dc	0.01163527
31	0xbd0a2f48	-0.033736497
32	0xbd184a7a	-0.0371804
33	0x3d118bed	0.035533834
34	0xbccb405b	-0.02481096
35	0x3cbe9762	0.023265544
36	0x3c9abd8e	0.018889215
37	0x3c9e2096	0.019302648
38	0x3c3215b4	0.010869432
39	0x3c865e7a	0.016402472
40	0x3ce4c786	0.027927171
41	0xbd1432d4	-0.036181286
42	0xbd2282ac	-0.0396754
43	0x3c7c2dfc	0.015391823
44	0xbc0c8850	-0.008577421
45	0xb9b52a00	-0.00034554303
46	0xbc0b786c	-0.0085125975
47	0xba457240	-0.0007531978
48	0xbbc4b728	-0.0060032792
49	0x3d02a541	0.03189588
50	0xbd17b1ea	-0.037034906
51	0xbc195700	-0.009359121
52	0x3cc8995a	0.024487186
53	0xbc4a3a7c	-0.012343045
54	0xbc99865e	-0.01874083
55	0x3cbe771e	0.023250159
56	0xbcec0190	-0.028809339
57	0xbc47efe0	-0.012203187
58	0xbcacea23	-0.021107739
59	0xbca2fae6	-0.019895028
60	0x3c72c334	0.014817048
61	0xbc3d422c	-0.011551421
62	0xbce7b228	-0.028283194
63	0xbbfa2688	-0.007633988
64	0x3ca8ef92	0.020622049
65	0x3c420ee4	0.0118443705
66	0xbd2a245b	-0.041538578
67	0x3d029453	0.031879734
68	0xbcd1b866	-0.025600623
69	0xbc800e63	-0.01563186
70	0xbc30608c	-0.010765206
71	0x3cf2b956	0.02962939
72	0xbb6ba6b0	-0.0035957508
73	0x3d202ad1	0.039103333
74	0x3d0189a5	0.03162541
75	0x3c8fb238	0.017541036
76	0x3c1497d0	0.009069398
77	0xbc0f74ac	-0.008755844
78	0xbc5d14e6	-0.013493752
79	0xbd093e37	-0.0335066
80	0x3c3e4824	0.011613879
81	0xbccc4413	-0.024934804
82	0xbcf1de53	-0.029524958
83	0x3c832b36	0.016011816
84	0x3adeb000	0.0016989708
85	0x3c9d4d60	0.019201934
86	0xbc080840	-0.008302748
87	0x3c23b734	0.0099924095
88	0x3aea63e0	0.0017882548
89	0xbd12ff63	-0.035888087
90	0x3bf53d28	0.007484097
91	0xbd23c607	-0.039983775
92	0xbccee94b	-0.025257727
93	0x3c18b8f4	0.00932144
94	0x39c0ea00	0.00036795437
95	0x3baee228	0.0053370185
96	0x3bf4f4e0	0.0074754804
97	0x3a6fae00	0.00091430545
98	0xbc6d829c	-0.014496472
99	0xbcf0d478	-0.029398188
100	0x3bc27528	0.0059343763
101	0xbd06b73f	-0.0328896
102	0x3cac35ee	0.02102181
103	0xbc9777e3	-0.018489784
104	0x3cdf1c22	0.027235094
105	0x3c5b4010	0.013381973
106	0xbb6e2290	-0.0036336519
107	0xbb1494c0	-0.002267167
108	0x3cc52e3a	0.024069894
109	0x3b9a4df8	0.0047090016
110	0x3b969738	0.0045956634
111	0x3adc70e0	0.0016818307
112	0xbcde4d48	-0.02713646
113	0xbcb90b20	-0.022588313
114	0xbbf41cf8	-0.0074497424
115	0x3d20deff	0.039275166
116	0xbc4ae19c	-0.012382891
117	0x3d2503b7	0.040286746
118	0x3c0283ac	0.007965963
119	0xbcab9a43	-0.020947581
120	0x3b8e9560	0.004351303
121	0xbd130f44	-0.03590323
122	0xbd242f43	-0.040084135
123	0xbd139e2f	-0.036039528
124	0x3ca045ee	0.019564595
125	0xbd0ae3fa	-0.03390882
126	0x3c30aa4c	0.010782789
127	0xbd162e97	-0.036665525
128	0x3d1e3ffd	0.038635243
129	0x3d17ce15	0.03706177
130	0x3cd99d66	0.026564311
131	0xbc6fe926	-0.014642989
132	0x3cf3b382	0.029748682
133	0x3c71ec70	0.014765844
134	0x3cc9c84a	0.024631638
135	0xbc80b630	-0.015711874
136	0xbc0a3580	-0.008435607
137	0xbc8ad3d6	-0.016946714
138	0xbd23fedc	-0.040037975
139	0xbc3b105c	-0.011417475
140	0x3c4c1794	0.012456793
141	0xbc2a1be0	-0.0103826225
142	0xbba1b5a0	-0.0049349815
143	0xbc93bcb8	-0.018034324
144	0xbc82b4de	-0.015955385
145	0x3ca59332	0.02021179
146	0x3c76a9fc	0.015055176
147	0xbc933e50	-0.017974049
148	0x3a53aac0	0.0008074455
149	0xbca63106	-0.020287048
150	0x3d153d37	0.036435332
151	0xbc6a7b76	-0.014311662
152	0x3d1430a1	0.03617919
153	0xbc4178b0	-0.011808559
154	0x3c1ce1a0	0.009575278
155	0xbad8f680	-0.0016552955
156	0xbd0ee0cf	-0.034882363
157	0xb933f100	-0.0001716055
158	0x3c95b120	0.018272936
159	0xbc09794c	-0.008390736
160	0xbca00106	-0.019531738
161	0xbd09d57f	-0.03365087
162	0xbd1f1907	-0.038842227
163	0xbcbd3338	-0.023095712
164	0xbcd62d7e	-0.02614474
165	0xbd122a9b	-0.035685163
166	0x3b8e4fa8	0.004342992
167	0x3b0247f0	0.0019879304
168	0x3cf215aa	0.029551346
169	0xbcda7803	-0.026668554
170	0x3c2c8600	0.010529995
171	0xbcf31888	-0.029674783
172	0xbd1b6ca0	-0.03794539
173	0x3ab00b80	0.0013431162
174	0x3c8f8070	0.017517298
175	0x3d09ebed	0.033672262
176	0xbc9d8168	-0.019226745
177	0xb52f0000	-6.519258e-07
178	0xbc6e6450	-0.014550284
179	0xbd0c6cb6	-0.034283362
180	0xbc90db6b	-0.017682752
181	0xbceb5558	-0.028727219
182	0x3cc680ca	0.024231333
183	0xbc1c823c	-0.009552535
184	0x3cee4a6e	0.029088225
185	0x3a055000	0.00050854683
186	0x3cae71a2	0.021294419
187	0xbd29df1a	-0.04147253
188	0xbc4fab96	-0.012675187
189	0xbd15d673	-0.036581468
190	0xbc1fbd20	-0.009749681
191	0xbce9444b	-0.028474947
192	0x3d05c03b	0.03265403
193	0x3c8da46e	0.01729032
194	0xbc530d8c	-0.012881648
195	0x3d1548e5	0.03644647
196	0xbad8a2a0	-0.0016527958
197	0xbc7ffcd0	-0.01562424
198	0x3cb1a12a	0.021683294
199	0x3c307254	0.010769445
200	0x3cf57362	0.029962245
201	0x3c12dc80	0.008963704
202	0x3bd6b708	0.0065525807
203	0x3be17540	0.0068804324
204	0xbc80137b	-0.015634289
205	0x3cf2a1fa	0.029618252
206	0xbd109c5f	-0.035305377
207	0x3d16a8f9	0.03678224
208	0xbd0d2942	-0.034463175
209	0xbd0f22c8	-0.03494528
210	0x3d213539	0.039357398
211	0x3d19365d	0.03740536
212	0xbbb50b48	-0.0055250265
213	0xbca8fbf6	-0.020627957
214	0x3cdbd9c2	0.026837233
215	0xbd11404f	-0.03546172
216	0x3d2854ed	0.041096617
217	0x3cb3842e	0.021913614
218	0xbcf96b13	-0.030446565
219	0xbc4b4f6c	-0.012409072
220	0xbbb5f020	-0.005552307
221	0xbc2dab20	-0.010599881
222	0xbb8c8658	-0.004288476
223	0xbc8e5966	-0.017376613
224	0xbc0aac24	-0.008463893
225	0x3ce1c592	0.02756003
226	0xbc858843	-0.016300326
227	0x3d297299	0.041369054
228	0xbd08b8f2	-0.033379503
229	0x3c3ec5d0	0.011643842
230	0x3c7ee93c	0.015558537
231	0x3d1059f1	0.035242025
232	0x3c553b64	0.013014648
233	0xb9b3da00	-0.00034303963
234	0xbd1da12e	-0.03848379
235	0x3d22bef5	0.039732892
236	0xbc8a7313	-0.016900575
237	0x3d189643	0.037252676
238	0xb9b2a880	-0.00034076348
239	0xbbeadf18	-0.007167708
240	0xbc1727c0	-0.009225786
241	0x3c0d6164	0.008629177
242	0xbd0bf81b	-0.03417216
243	0xbbc9a548	-0.0061537363
244	0x3bb5c728	0.005547423
245	0x3d06e2e3	0.03293122
246	0x3b812fe0	0.0039424747
247	0x3c38c4bc	0.011277374
248	0x3cfc0e6a	0.030768592
249	0xbc507cfc	-0.012725111
250	0xbc30c506	-0.010789162
251	0x3ab98ae0	0.0014155768
252	0x3a95e3e0	0.001143571
253	0x3d1c2f8d	0.038131285
254	0xbc4c2a9c	-0.012461331
255	0xbcbf7f50	-0.023376137

layers.3.bias f4 [16]
0	0xbd0c8a83	-0.034311783
1	0xbd00e940	-0.031472445
2	0xbceec75e	-0.0291478
3	0xbb7a1b90	-0.0038163401
4	0x3d247411	0.040149752
5	0xbc7f9c2c	-0.015601199
6	0x3d001aad	0.03127544
7	0xbca24e43	-0.019812709
8	0xbc3d7ae0	-0.01156494
9	0xbc8fc7a0	-0.017551243
10	0x3d138887	0.036018874
11	0x3cd08db2	0.02545819
12	0xbc9ddbbb	-0.019269815
13	0xbd24c452	-0.04022629
14	0xbcce12b6	-0.025155406
15	0xbd094a92	-0.03351838

layers.6.weight f4 [32, 16, 3, 3]
0	0x3b7b9600	0.0038388968
1	0xbd4ced3b	-0.050030928
2	0xbd7a3198	-0.061082453
3	0x3d28eef0	0.041243494
4	0xbd44d1e0	-0.048051715
5	0x3d2e7d5e	0.04260003
6	0x3d699382	0.05702544
7	0x3d8ab515	0.0677282
8	0xbbaf8c50	-0.0053573027
9	0x3d90af01	0.07064629
10	0x3c6ba3d8	0.014382325
11	0x3a8141c0	0.0009861514
12	0x3cd8a094	0.026443757
13	0x39cc3700	0.0003895089
14	0x3c15f1c8	0.009151883
15	0x3d835a39	0.06413693
16	0xbd9e7f44	-0.07739118
17	0x3d72fa4e	0.05932074
18	0x3d5437f2	0.051811166
19	0x3d9ba7ab	0.076003395
20	0x3c8150d4	0.015785612
21	0xbd87f076	-0.06637661
22	0xbd51d52e	-0.051228695
23	0x3d6f1a82	0.05837489
24	0x3d9afa29	0.075672455
25	0xbd11eb10	-0.035624564
26	0xbd88aa88	-0.06673151
27	0x3ca24c40	0.01981175
28	0x3d70aa2a	0.05875603
29	0xbca1f580	-0.019770384
30	0xbcd26a00	-0.02568531
31	0x3b6a5da0	0.0035761371
32	0x3d99c6fd	0.07508657
33	0x3d0d5770	0.034507215
34	0xbc213258	-0.009838663
35	0xbd6fc90e	-0.05854135
36	0xbd56c850	-0.052437127
37	0xbd2be036	-0.04196187
38	0x3aa00040	0.0012207106
39	0xbd330d40	-0.043713808
40	0xbcda8e06	-0.02667905
41	0x3d492cce	0.049114995
42	0x3d8913e5	0.06693248
43	0x3c459748	0.012059994
44	0x3c57bc58	0.013167463
45	0xbd91c013	-0.071167134
46	0x3d2ccdda	0.042188503
47	0xbd6a19de	-0.057153575
48	0x3d5fe2ae	0.054659538
49	0x3d30a332	0.043124385
50	0xbd87b07c	-0.066254586
51	0x3d0f039a	0.034915544
52	0xbd8451bc	-0.06460902
53	0x3ce8b75c	0.028407745
54	0xbca6c950	-0.020359665
55	0x3d5a0eea	0.05323688
56	0x3da37e11	0.0798303
57	0xbd97af4c	-0.07406482
58	0x3b72e880	0.003706485
59	0x3d872125	0.06598119
60	0x3d9704e5	0.073739804
61	0xbd340796	-0.043952547
62	0x3d039682	0.032125957
63	0xbcfb8270	-0.030701846
64	0x3d14e34a	0.036349572
65	0x3d7fba0a	0.06243328
66	0x3d460b2e	0.048350506
67	0xbb6ac320	-0.003582187
68	0xbcd67ed6	-0.026183527
69	0x3d52722e	0.05137842
70	0x3c609308	0.01370693
71	0x3c40c908	0.01176668
72	0x3cea8580	0.02862811
73	0xbd209373	-0.03920312
74	0xbd2eac40	-0.04264474
75	0xbd58eee3	-0.052962195
76	0xbc9cda6c	-0.01914712
77	0xbcc5800c	-0.02410891
78	0x3c784618	0.01515343
79	0x3cbc05fc	0.022952072
80	0x3d56fd72	0.052487798
81	0xbd9dfe02	-0.07714464
82	0xbd87bb8a	-0.06627567
83	0xbd50e7f8	-0.051002473
84	0xbc6d23f8	-0.014473908
85	0x3c178d40	0.009249985
86	0xbd8fe274	-0.070256144
87	0xbd427f6e	-0.047484808
88	0xbd76bfb0	-0.0602414
89	0xbc600858	-0.013673864
90	0x3d1dfa12	0.038568564
91	0xbc398a20	-0.0113244355
92	0x3d462202	0.048372276
93	0xbc8e1e80	-0.017348528
94	0x3d2788d6	0.04090198
95	0xbd61ef3e	-0.0551598
96	0xbbbb1190	-0.0057088807
97	0xbd97ee1c	-0.07418463
98	0x3d07e50a	0.033177413
99	0x3c50ed40	0.012751877
100	0x3d559ab2	0.052149482
101	0x3da8b555	0.08237711
102	0x3bbd6700	0.005780101
103	0x3ba24280	0.004951775
104	0x3d563c0e	0.052303366
105	0xbd8ff852	-0.07029785
106	0xbd6f0156	-0.058350883
107	0x3be69df0	0.0070378706
108	0x3d3519f2	0.044214197
109	0x3d685e12	0.056730337
110	0xbd65ae7e	-0.05607461
111	0x3c398958	0.011324249
112	0xbd9df50c	-0.077127546
113	0x3c3964e8	0.011315562
114	0x3d57d066	0.05268898
115	0xbcfd29f0	-0.030903786
116	0xbd0ae816	-0.03391274
117	0xbb3f2a00	-0.002916932
118	0x3d3dd1f2	0.046342798
119	0xbc927464	-0.017877765
120	0xbc5f5cc8	-0.013632961
121	0xbc966bf0	-0.018362015
122	0x3d40cd4e	0.047070794
123	0x3d0bdb1e	0.034144513
124	0xbd89de10	-0.06731808
125	0x3b26cea0	0.0025452748
126	0xbd97d853	-0.074143074
127	0x3ca78334	0.020448305
128	0xbcebea90	-0.028798372
129	0xbd0ebeb0	-0.034849823
130	0xbc024ea8	-0.007953323
131	0xbcbc3e0c	-0.022978805
132	0x3cceb92c	0.025234781
133	0x3d953a51	0.072865136
134	0x3d678b72	0.05652947
135	0xbd636263	-0.05551375
136	0x3ce728a0	0.028217614
137	0xbd932d06	-0.07186322
138	0xbc3cdb60	-0.011526912
139	0xbc82aac4	-0.015950568
140	0x3d81f54f	0.06345617
141	0x3d97fc95	0.07421223
142	0xbcfa3370	-0.030542105
143	0xbd7c9d0e	-0.061673217
144	0x3da60fcb	0.08108481
145	0x3d584bba	0.052806593
146	0x3d86b261	0.06576992
147	0xbc3ee138	-0.011650376
148	0x3d7ea78a	0.062171496
149	0x3cd74604	0.026278503
150	0xbd972cd3	-0.073815964
151	0xbd074520	-0.033024907
152	0xbd79c176	-0.060975514
153	0xbc62c1a0	-0.013840109
154	0xbd8e4e87	-0.06948572
155	0x3d8102f9	0.06299395
156	0x3d131b36	0.035914622
157	0x3d7affe2	0.061279185
158	0x3d5a7302	0.053332336
159	0xbceab8c6	-0.02865256
160	0x3d301b02	0.042994507
161	0x3d12046a	0.03564874
162	0x3b90f0c0	0.004423231
163	0xbd21a91b	-0.039467912
164	0xbca4646c	-0.020067416
165	0xbd169178	-0.036759824
166	0x3cdc55dc	0.02689641
167	0xbd91ca20	-0.071186304
168	0xbd878bf3	-0.0661849
169	0xbd54d94e	-0.05196505
170	0x3d9aa503	0.07551005
171	0x3d92ead3	0.071736954
172	0xbd14372e	-0.036185436
173	0x3c9aea84	0.018910654
174	0x3d6847ca	0.05670909
175	0x3d3b4332	0.04571838
176	0xbce34ac0	-0.027745605
177	0x3d21662e	0.039404087
178	0xbbfa6c50	-0.0076423064
179	0xbbb98190	-0.005661197
180	0xbd77c0e6	-0.060486697
181	0xbd3caf3e	-0.04606556
182	0x3c368838	0.0111408755
183	0xbcc7083c	-0.024295919
184	0xbd88f4b8	-0.066873014
185	0xbc06fac8	-0.008238502
186	0xbd88d296	-0.06680791
187	0xbd8aafd7	-0.0677182
188	0x3a7b8980	0.0009595379
189	0xbd9cd32e	-0.07657467
190	0x3cabcfb0	0.020973057
191	0x3d80de93	0.06292453
192	0xbd33ff90	-0.043944895
193	0x3cfcf074	0.030876376
194	0x3bc777f0	0.0060872957
195	0xbd790500	-0.060795784
196	0xbbcea840	-0.006306678
197	0x3d1d254e	0.038365655
198	0xbd4d74cb	-0.05016021
199	0x3d4f4d5e	0.050610892
200	0xbd23d9f6	-0.040002786
201	0x3d7a2402	0.061069496
202	0x3d09f2c8	0.0336788
203	0xbd375d56	-0.044766746
204	0x3d7c07e6	0.06153097
205	0xbc5bfc00	-0.013426781
206	0x3d910011	0.07080091
207	0x3b939c90	0.0045047477
208	0xbd29653b	-0.041356307
209	0x3c666440	0.014061987
210	0x3d841971	0.06450165
211	0xbd982d5e	-0.07430528
212	0x3d903ce1	0.07042862
213	0x3d9d00f1	0.07666195
214	0x3c8d3910	0.017239124
215	0x3d39811e	0.04528915
216	0xbc408ea8	-0.011752762
217	0x3d3534f2	0.044239946
218	0x3cf40660	0.029788196
219	0xbd56f823	-0.052482735
220	0xbd966aa7	-0.07344561
221	0x3d5d1c3e	0.053982012
222	0x3d76844e	0.06018477
223	0xbd290778	-0.04126689
224	0x3d34eb52	0.04416973
225	0x3b922a90	0.0044606403
226	0x3bcb5fc0	0.0062064826
227	0x3c827474	0.01592467
228	0xbda1acef	-0.078943126
229	0x3bde9450	0.0067925826
230	0x3d068768	0.032843977
231	0x3cd53000	0.026023865
232	0xbd93eb94	-0.07222667
233	0xbcdd69dc	-0.027028017
234	0x3d886db1	0.06661547
235	0x3d840233	0.06445732
236	0x3ba63e90	0.005073376
237	0xbd4bbab0	-0.049738586
238	0x3d5b7152	0.053574868
239	0xbd19703e	-0.037460558
240	0x3c89d720	0.016826212
241	0x3c006608	0.007836826
242	0x3d69e0f2	0.05709929
243	0x3d1fdda2	0.039029725
244	0x3c21ac00	0.009867668
245	0xbc7f13c8	-0.015568681
246	0xbd18a47b	-0.037266236
247	0x3d88aa13	0.06673064
248	0xbd014af8	-0.031565636
249	0x3d95210d	0.072816946
250	0xbd3ea61e	-0.04654514
251	0xbd7943fb	-0.060855847
252	0x3bc43210	0.005987413
253	0xbd169898	-0.03676662
254	0x3d819a01	0.06328202
255	0xbd0be91e	-0.034157865

layers.6.bias f4 [32]
0	0xbd25cec8	-0.040480405
1	0x3d977905	0.073961295
2	0x3d88ca9d	0.066792704
3	0x3d563cfa	0.052304246
4	0x3ce8ba20	0.028409064
5	0x3cf6b694	0.030116357
6	0xbd047a28	-0.03234306
7	0xbd1a39ae	-0.037652664
8	0xbd404636	-0.04694196
9	0x3d0e2546	0.034703515
10	0xbd1d5f2b	-0.038420837
11	0xbb4deb80	-0.0031420887
12	0x3d9db5dd	0.07700703
13	0xbd4da273	-0.05020375
14	0xbce8b370	-0.028405875
15	0xbd0f8d7b	-0.035047036
16	0x3c48afa0	0.0122489035
17	0xbd72cf06	-0.059279464
18	0xbd31b8c6	-0.043389104
19	0xbd2658e8	-0.04061213
20	0x3cf9a7ac	0.03047546
21	0x3d77ca1e	0.06049549
22	0x3d82ae55	0.063809074
23	0xbca8e024	-0.020614691
24	0x3c416e60	0.011806101
25	0xbd0ba4d6	-0.034092747
26	0xbc9465e4	-0.018114991
27	0xbcc3d2ec	-0.023904286
28	0xbbe5e730	-0.007016085
29	0xbd9169c8	-0.07100254
30	0x3d85dc63	0.06536176
31	0x3d9b1a27	0.075733475

layers.9.weight f4 [64, 32, 3, 3]
0	0xbd614ecc	-0.055006787
1	0xbc2b6134	-0.010460187
2	0x3d613407	0.054981258
3	0xbd399d9b	-0.04531632
4	0xbd4d6c74	-0.050152257
5	0x3c1ec57c	0.009690639
6	0x3cadfae2	0.021237794
7	0x3d45ada7	0.04826131
8	0xbd4baaee	-0.049723558
9	0x3d0b4f97	0.03401145
10	0x3d50774d	0.050895024
11	0xbcaef424	-0.02135665
12	0x3cc82a5e	0.024434265
13	0xbc5cba14	-0.013472099
14	0xbb1594c0	-0.0022824258
15	0xbc815870	-0.01578924
16	0xbc957e6e	-0.018248763
17	0xbcbbd8e8	-0.022930577
18	0x3a8b2140	0.0010614768
19	0xbd2e91bd	-0.042619456
20	0xbbae0490	-0.0053106025
21	0x3c9feada	0.019521166
22	0x3d1bd2fb	0.038043004
23	0xbcdd429c	-0.0270093
24	0xbd6f488d	-0.0584188
25	0xbceab219	-0.028649377
26	0x3cedfbe6	0.029050779
27	0xbd55e43c	-0.052219614
28	0xbd021fbe	-0.031768553
29	0xbd1baa80	-0.0380044
30	0x3c3286ec	0.010896426
31	0xbd51c4e5	-0.051213164
32	0xbd038102	-0.032105453
33	0x3d67ffcf	0.056640442
34	0x3c8210d2	0.015877161
35	0xbcad4f62	-0.021156017
36	0xbd2c908a	-0.04213003
37	0x3c7ff514	0.015622396
38	0xbd3ff80c	-0.046867415
39	0x3d042019	0.032257173
40	0xbcc25c70	-0.023725718
41	0x3d14a759	0.036292408
42	0x3b303e40	0.0026892573
43	0xbbe82030	-0.007083915
44	0xbd41f0d7	-0.047348823
45	0x3c9a905a	0.01886766
46	0x3d54c2e3	0.05194367
47	0xbc0ddfec	-0.008659344
48	0xbd086056	-0.033294998
49	0x3d451f77	0.04812571
50	0x3c35b0cc	0.011089515
51	0x3ba4c808	0.0050287284
52	0x3c81202e	0.015762415
53	0x3d4b4b3f	0.049632307
54	0x3cb4025a	0.021973778
55	0xbd6eb628	-0.058279186
56	0x3d62b51d	0.055348504
57	0xbb6fb110	-0.0036574043
58	0xbce6240d	-0.028093362
59	0x3d2a9277	0.041643586
60	0x3d262945	0.0405667
61	0xbd52bd0f	-0.05144983
62	0xbcab76a8	-0.020930603
63	0xb7f64000	-2.9355288e-05
64	0xbaecb6a0	-0.0018059798
65	0xbc21d44c	-0.009877276
66	0xbc94206e	-0.01808187
67	0x3cb02d02	0.021505836
68	0xbd3e7dc4	-0.04650666
69	0xbcde347c	-0.027124636
70	0x3c4d5fb4	0.012535024
71	0x3ce8b202	0.028405193
72	0x3c630554	0.013856251
73	0xbcc67eb2	-0.024230335
74	0xbc9545c6	-0.018221747
75	0xbd3fc488	-0.046818286
76	0xbc518bec	-0.012789708
77	0x3a98fe00	0.0011672378
78	0xbca4b462	-0.020105544
79	0x3d24adf5	0.04020496
80	0x3c08a99c	0.008341219
81	0xbd20e60c	-0.03928189
82	0x3cf364f6	0.029711228
83	0x3c50821c	0.012726333
84	0x3d275f5f	0.040862437
85	0xbc8acd2e	-0.01694354
86	0xbc65545c	-0.013997164
87	0x3c55c5bc	0.013047632
88	0xbca278a4	-0.019832917
89	0x3d6feff9	0.058578465
90	0xbb088aa0	-0.002083458
91	0xbca5ce66	-0.02024002
92	0xbceda9b1	-0.02901158
93	0xbc4a2304	-0.01233745
94	0xbd5412e6	-0.051775835
95	0xbd33520d	-0.04377942
96	0x3d1090af	0.03529423
97	0xbd66cd06	-0.05634787
98	0x3d2ca883	0.042152893
99	0xbcbf3980	-0.023342848
100	0x3d035899	0.032066915
101	0xbca4d4b0	-0.020120949
102	0xbd6c4ff8	-0.05769345
103	0xbc9cb332	-0.019128416
104	0x3d346baf	0.044048008
105	0x3b4eade0	0.0031536743
106	0x3d2b6eb7	0.041853633
107	0xbc91561e	-0.01774126
108	0xbd31ab6c	-0.04337637
109	0x3cf46282	0.029832128
110	0xbd122841	-0.03568292
111	0x3d233233	0.039842796
112	0xbcdcf9de	-0.026974615
113	0x3c989e42	0.01863015
114	0x3a723280	0.00092390925
115	0xbc677658	-0.014127336
116	0xbd5cb3c1	-0.053882364
117	0x3cab935a	0.020944286
118	0xbc657cbc	-0.01400679
119	0x3ceec44e	0.02914634
120	0xbc9bab50	-0.019002587
121	0xbbcf5a80	-0.006327927
122	0x3d6069b9	0.054788325
123	0xbcab6218	-0.020920798
124	0xbd60bbc5	-0.05486657
125	0x3d2f4fd3	0.042800736
126	0xbbcf43b0	-0.0063252077
127	0xbc14bb48	-0.009077854
128	0x3c03dc74	0.008048166
129	0x3c9095d6	0.017649572
130	0x3cca0bc6	0.024663817
131	0x3b32e130	0.0027294867
132	0xbd202dcd	-0.03910618
133	0xbb72bae0	-0.0037037656
134	0xbd70d7e5	-0.058799643
135	0x3b70bb90	0.003673289
136	0x3a525700	0.0008023828
137	0x3d7038bb	0.058647852
138	0xbd366696	-0.044531427
139	0xbd305982	-0.04305411
140	0x3d4e9aad	0.05044048
141	0x3bf4b278	0.007467564
142	0xbd071080	-0.03297472
143	0xbc36b3c8	-0.011151262
144	0xbc9c2854	-0.019062199
145	0x3cd3cd2e	0.025854673
146	0x3c932e9e	0.017966565
147	0x3c950fd2	0.01819602
148	0xbbb02950	-0.0053760186
149	0x3d45a143	0.048249494
150	0x3d2d2a15	0.04227646
151	0x3c8daca2	0.017294232
152	0x3d31edbd	0.043439616
153	0xbd1d4c95	-0.038403112
154	0xbd4dc07d	-0.0502324
155	0x3cbf34fe	0.023340698
156	0xbd018424	-0.03162016
157	0xbbd67430	-0.0065446123
158	0x3c9fb236	0.019494157
159	0xbd235a0a	-0.03988079
160	0x3d07af7b	0.033126336
161	0xbcf00af0	-0.02930209
162	0xbd539901	-0.051659588
163	0xbc49e5c4	-0.012322847
164	0xbd1ab444	-0.03776957
165	0xbcd800fc	-0.026367657
166	0xbd02fce6	-0.031979464
167	0xbd3f543e	-0.0467112
168	0x3cedfb2e	0.029050436
169	0xb9355400	-0.00017292798
170	0x3d2b6bad	0.041850735
171	0x3d48fcbb	0.049069148
172	0xbcbf7eca	-0.023375887
173	0xbd6014a6	-0.054707192
174	0xbd6929c5	-0.0569246
175	0xbd4e46c4	-0.050360456
176	0x3d6a8c23	0.05726255
177	0xbd6e61f9	-0.058198903
178	0xbbe68a30	-0.007035516
179	0xbc040824	-0.0080585815
180	0xbc98ac1a	-0.018636752
181	0xbc0e0acc	-0.008669566
182	0xbd47c60d	-0.04877286
183	0xbcdaaaa8	-0.026692703
184	0x3c8e660a	0.01738264
185	0xbd5ce7c7	-0.053931978
186	0xbd1b1bea	-0.037868418
187	0xbca5e110	-0.02024892
188	0x3c2e252c	0.01062898
189	0x3d0dd4bf	0.03462672
190	0xbc8d5970	-0.017254561
191	0x3d010b6b	0.03150503
192	0x3d533e9f	0.051573392
193	0xbd0d3dc6	-0.03448274
194	0xbc5e9f20	-0.013587743
195	0x3d240ca9	0.040051136
196	0xbd5ef38a	-0.054431476
197	0xbd62a2b2	-0.05533094
198	0x3caa409a	0.020782758
199	0xbc877e88	-0.016539827
200	0x3c1f96b4	0.00974052
201	0x3c24cc3c	0.010058459
202	0x3cac1bfa	0.021009434
203	0x3cac6986	0.021046411
204	0x3d48ed97	0.04905471
205	0xbd58db1c	-0.052943334
206	0xba07f880	-0.00051868707
207	0x3d4cf987	0.050042655
208	0x3c4b3b0c	0.012404215
209	0xbd357660	-0.044302344
210	0x3cb5be36	0.022185426
211	0x3cab90a2	0.02094299
212	0x3d434097	0.04766902
213	0xbd08bbb9	-0.03338215
214	0x3d0c04dd	0.034184325
215	0xba8789c0	-0.0010340735
216	0xbccc9656	-0.02497403
217	0x3c9bc532	0.019014928
218	0x3d47a1dd	0.04873835
219	0x3c078a14	0.0082726665
220	0xbd3bdb9b	-0.04586373
221	0xba8500a0	-0.0010147281
222	0xbc644604	-0.013932709
223	0xbb798d90	-0.0038078763
224	0xbc8735c2	-0.016505126
225	0x3c9d3fce	0.019195464
226	0xb995b800	-0.00028556585
227	0x3c29c224	0.010361228
228	0x3cde2ad2	0.027120028
229	0x3d00997d	0.031396378
230	0x3d0fa15f	0.035066005
231	0xbd0a7ecc	-0.03381233
232	0x3d21b02f	0.039474662
233	0xbd3a5099	-0.04548702
234	0x3d5dfb0f	0.054194506
235	0x3b92c1e8	0.004478682
236	0xbd0795a4	-0.033101693
237	0xbb3c8410	-0.0028765239
238	0x3c780afc	0.015139338
239	0x3d6d0eed	0.057875562
240	0x3d12c707	0.03583434
241	0x3d6d9e67	0.058012392
242	0x3c010ac4	0.007876102
243	0x3c8aa1ba	0.01692282
244	0x3c743a14	0.014906425
245	0x3c0366dc	0.008020129
246	0x3d484e09	0.048902545
247	0xbc25db48	-0.0101230815
248	0x3d6e417f	0.05816793
249	0x3ce687d6	0.028140943
250	0xbc7ec868	-0.01555071
251	0x3d4447fd	0.047920216
252	0xbd0f21c4	-0.03494431
253	0xbb33ee20	-0.0027455166
254	0x3d114d6b	0.035474222
255	0xbd4048b9	-0.046944354

layers.9.bias f4 [64]
0	0x3bc579f8	0.0060265027
1	0xbc51eea0	-0.01281324
2	0xbd3f67f6	-0.046730004
3	0xbd19eef4	-0.0375814
4	0x3c2b85ec	0.010468941
5	0x3cf1666a	0.02946778
6	0xbc3614a8	-0.011113323
7	0xbb8e62b8	-0.0043452643
8	0x3d0b5b8d	0.034022857
9	0x3d21a97f	0.039468285
10	0xba5ca080	-0.00084162503
11	0xbd029cb7	-0.031887736
12	0x3bec3ac8	0.0072091557
13	0xbca7bda0	-0.020476162
14	0xbd1b3edf	-0.037901755
15	0x3ceeae9a	0.02913599
16	0x3cecd576	0.02891038
17	0x3d11b1b5	0.035569865
18	0xbd6759b6	-0.05648204
19	0xbd08a427	-0.033359673
20	0xbbb95128	-0.0056554265
21	0x3d5c92f9	0.0538511
22	0x3d1950bf	0.03743052
23	0xbb40bc80	-0.002940923
24	0x3d24919b	0.040177923
25	0xbc3a14d8	-0.011357509
26	0x3d3a6793	0.045508932
27	0x3cffa79e	0.031207856
28	0x3ca0279a	0.019550133
29	0xbd45ea5c	-0.048319206
30	0x3a1fd040	0.00060964003
31	0xbd366cbc	-0.04453729
32	0xbc23c7c0	-0.009996355
33	0xbc27f4a8	-0.010251202
34	0xbcfaf434	-0.030634023
35	0xbcf58a18	-0.029973075
36	0xbd148576	-0.03626009
37	0xbb51d2e0	-0.003201656
38	0xbd2aadde	-0.04166972
39	0x3d07d0c5	0.033158083
40	0xbd6bc4e6	-0.057560824
41	0x3c5f644c	0.0136347525
42	0x3d199de3	0.037504088
43	0x3c5d8394	0.01352014
44	0x3d563f09	0.05230621
45	0xbd681db4	-0.056668952
46	0x3d040aa5	0.032236714
47	0x3cfe47ca	0.031040091
48	0xbb52e2b0	-0.0032178573
49	0x3d57ec83	0.05271579
50	0xbd344761	-0.044013385
51	0x3c7ea2ec	0.015541773
52	0x3bdef638	0.006804254
53	0x3cac4ae2	0.0210318
54	0xbc8b4426	-0.01700027
55	0x3cf0d3fa	0.029397953
56	0xbd3147c9	-0.04328135
57	0x3c39937c	0.011326667
58	0xbd6965ba	-0.05698178
59	0xbd1de4ad	-0.03854816
60	0xbd5c1b45	-0.053736944
61	0xbd5f541c	-0.054523572
62	0x3b251840	0.0025191456
63	0x3d142b89	0.03617433

layers.11.weight f4 [128, 64, 3, 3]
0	0xbbe07a78	-0.006850537
1	0x3c3b6ef4	0.0114400275
2	0xbd23f314	-0.04002674
3	0x3beef940	0.0072928965
4	0xbb3c3710	-0.0028719343
5	0xbc07dcdc	-0.008292403
6	0xbcb31748	-0.021861687
7	0x3c761f5c	0.015022125
8	0x3cba6352	0.022752438
9	0xbd0b0e96	-0.033949457
10	0xbd005cd2	-0.03133852
11	0x3bb9a3a0	0.0056652576
12	0x3c8a2f00	0.016868114
13	0xbc86fd50	-0.01647821
14	0x3d044d1d	0.032300103
15	0xbd07b04c	-0.033127114
16	0x3c8b6932	0.017017934
17	0xbc9db776	-0.01925252
18	0xbd265886	-0.040611766
19	0xbc542ab6	-0.012949636
20	0x3cb95362	0.022622768
21	0xba948e00	-0.0011333823
22	0xbd171a64	-0.036890402
23	0xbca0b9b6	-0.019619804
24	0x3c4786e0	0.012178153
25	0xbce4bc3e	-0.027921792
26	0xbcddfd03	-0.027098184
27	0xbb5ec7d0	-0.003399361
28	0x3d17b66d	0.03703921
29	0x3c5acb90	0.013354197
30	0x3d11d72f	0.035605606
31	0xb99de000	-0.00030112267
32	0xbbb395e0	-0.005480513
33	0x3bc23c28	0.0059275813
34	0x3caa2400	0.02076912
35	0x3c5d12ec	0.013493281
36	0xbcbfcaae	-0.023412075
37	0xbc0a0604	-0.008424286
38	0xbc389f76	-0.011268487
39	0xbc8c7370	-0.017144889
40	0xbd1b2926	-0.03788104
41	0x3d2312d1	0.039812867
42	0x3b6528b0	0.0034966879
43	0xbc6b981c	-0.014379527
44	0x3d2a5d59	0.04159293
45	0xbd020ccb	-0.03175048
46	0xbcdf130b	-0.02723076
47	0xbd17dda6	-0.037076615
48	0xbcb8e2ae	-0.022569027
49	0xbd0501ff	-0.032472607
50	0x3d01d6f1	0.031699125
51	0x3b967140	0.004591137
52	0xbbf95f00	-0.007610202
53	0xbb03e6f0	-0.0020126663
54	0x3ccc337a	0.02492689
55	0xbd12e28c	-0.035860583
56	0x3ce63f92	0.028106485
57	0x3d2898af	0.041161235
58	0xbd123c06	-0.035701774
59	0xbb1f2d00	-0.0024288297
60	0xbcfbb198	-0.030724332
61	0x3c883eb6	0.016631465
62	0xbbe2c640	-0.006920606
63	0x3bd6c020	0.006553665
64	0x3bbbf440	0.005735904
65	0x3c66225c	0.014046278
66	0x3cbc8a5a	0.02301519
67	0xbb6f9790	-0.0036558844
68	0xbc315ef0	-0.0108258575
69	0x3cf27526	0.029596876
70	0xbcf49e6b	-0.029860696
71	0x3c7b3b0c	0.015333902
72	0x3c3aa69c	0.011392262
73	0x3b4fd5f0	0.003171321
74	0xbc4f6306	-0.012657886
75	0xbc6e9bec	-0.014563542
76	0x3c7bcba4	0.015368376
77	0xbcce6066	-0.02519245
78	0xbd26cd2f	-0.040723022
79	0xbd143bbc	-0.03618978
80	0x3ba65168	0.0050756223
81	0xbcd1d1a8	-0.025612667
82	0xbd149432	-0.036274143
83	0x3cf67162	0.030083362
84	0x3ce15922	0.027508322
85	0xbd26c2ef	-0.040713247
86	0x3c13bd54	0.009017307
87	0x3d17c019	0.037048433
88	0xbd21b132	-0.039475627
89	0x3cbb490a	0.022861976
90	0xbccbcb78	-0.024877295
91	0xbd08c074	-0.033386663
92	0xbc544e2c	-0.012958091
93	0x3b70a110	0.0036717094
94	0x3d161ad9	0.036646698
95	0x3d024131	0.031800453
96	0xbd09470c	-0.03351502
97	0x3c6f6c30	0.014613196
98	0x3bf67bc0	0.0075220764
99	0xbd07caf2	-0.033152528
100	0xbcbde226	-0.023179125
101	0x3d180821	0.037117127
102	0xbc99bf53	-0.018767988
103	0xbcee5118	-0.029091403
104	0x3cf2c5c2	0.029635314
105	0xbd11bed4	-0.03558238
106	0xbcdd7e96	-0.0270379
107	0x3c63937c	0.0138901435
108	0xbd138780	-0.036017895
109	0xbc82263e	-0.015887376
110	0x3bcd9178	0.0062734447
111	0x3c127640	0.008939326
112	0x3a4ed440	0.0007889904
113	0xbcdc8de3	-0.026923126
114	0x3ca29c68	0.019849971
115	0x3d171095	0.03688105
116	0xbcfa0073	-0.030517792
117	0xbd16b26b	-0.036791246
118	0x3c1aa4bc	0.00943869
119	0x3b8b3688	0.004248444
120	0xbcbd5323	-0.023110932
121	0xbcf78636	-0.030215364
122	0x36e90000	6.943941e-06
123	0xbc05ec44	-0.008174006
124	0xbab67f20	-0.0013923384
125	0xbcd2c84b	-0.025730273
126	0xbc4aaaec	-0.0123698525
127	0xbd17b6a0	-0.0370394
128	0xbcf537d6	-0.029933851
129	0x3b889a88	0.004168812
130	0xbcd551d0	-0.026039988
131	0xbcb46640	-0.022021413
132	0x3d19a469	0.03751031
133	0x3c882100	0.016617298
134	0xbb84c1d8	-0.0040514283
135	0xbd03a82e	-0.03214281
136	0x3d16d935	0.03682824
137	0xbc102c34	-0.008799601
138	0x3cf0dd92	0.029402528
139	0xbc19f920	-0.009397775
140	0xbce98973	-0.028507924
141	0xbbc582d8	-0.0060275607
142	0x3c8b0862	0.01697177
143	0xbb8e9638	-0.0043514036
144	0xbc56a8bc	-0.013101753
145	0xbd273452	-0.04082138
146	0x3c98022e	0.018555727
147	0xbd16b0df	-0.03678977
148	0xbcc1b953	-0.02364794
149	0xbbff6e18	-0.0077951066
150	0xbc84163b	-0.016123882
151	0x3ccd3c0e	0.02505305
152	0xbc811a36	-0.015759569
153	0xbcce6678	-0.025195345
154	0xbcce37c6	-0.02517308
155	0xbcd25c3b	-0.025678745
156	0x3d254e91	0.04035813
157	0x3c1ce070	0.009574994
158	0x3c1182c4	0.008881275
159	0x3c1c30b4	0.009533096
160	0x3c9293ee	0.017892804
161	0x3d26103d	0.04054283
162	0x3cccf672	0.025019858
163	0x3d28c253	0.041200947
164	0xbbd656b8	-0.0065410994
165	0x3d13992d	0.03603475
166	0x3cb607aa	0.022220451
167	0xbc06f7d0	-0.008237794
168	0x3c5a372c	0.013318818
169	0xbcfb4510	-0.03067258
170	0x3ce1510a	0.027504463
171	0x3c0940e0	0.008377284
172	0xbb96aca8	-0.004598219
173	0xbcc07f98	-0.023498341
174	0xba5ca300	-0.0008416623
175	0x3cf7fa86	0.030270826
176	0x3cd1cbee	0.025609937
177	0x3d1a320f	0.037645396
178	0xbb0effd0	-0.0021819957
179	0xbd1d428b	-0.03839354
180	0x3d0bafcf	0.03410321
181	0xbcd38668	-0.025820926
182	0xbc3e6b2c	-0.011622231
183	0x3ccf5f8a	0.025314111
184	0xbd29772e	-0.041373424
185	0xbcd70488	-0.026247278
186	0x3c91fe08	0.017821327
187	0xbc9c91cb	-0.019112488
188	0x3cf995c2	0.030466918
189	0xbc9a6e73	-0.018851494
190	0xbd1a5c7f	-0.037685867
191	0x3bc82158	0.0061074905
192	0xbd09efd2	-0.033675976
193	0x3d150479	0.03638122
194	0x3cf1458e	0.029452112
195	0xbacbdf20	-0.0015554167
196	0xbd25819b	-0.040406805
197	0xbaca7d80	-0.0015448779
198	0xbc42eb06	-0.011896854
199	0xbb6f9340	-0.0036556274
200	0xbbe26fc0	-0.0069102943
201	0xbb1aaf40	-0.0023602992
202	0xbd2909e6	-0.041269206
203	0xbcf748f0	-0.030186146
204	0x3cbfa652	0.023394737
205	0xbb5086b0	-0.0031818561
206	0x3c86edda	0.016470838
207	0x3c89d460	0.016824901
208	0x3b92ebb8	0.0044836663
209	0xbd28ec56	-0.041241013
210	0x3ca09386	0.019601595
211	0x3d134993	0.035958838
212	0x3c8a78d2	0.016903315
213	0xbcfbff00	-0.030761242
214	0xbbb71ef8	-0.0055884086
215	0x3ce8c3da	0.028413702
216	0xbcc9680b	-0.024585744
217	0x3cc3f9fa	0.023922909
218	0xbd0677d0	-0.032829106
219	0x3c9ce748	0.019153252
220	0xbca1599e	-0.019696053
221	0xbc929358	-0.017892525
222	0x3be16338	0.006878283
223	0xbc3d6b2c	-0.011561196
224	0xbb4549f0	-0.0030103885
225	0xbd274f98	-0.04084739
226	0xbd0fad10	-0.035077155
227	0xbcbe09eb	-0.023198089
228	0xbc2a30c4	-0.010387603
229	0xbc5a8fb6	-0.013339927
230	0x3c942d1a	0.018087912
231	0xbcc18256	-0.02362172
232	0x3c6d0de4	0.014468644
233	0xbc90dd8b	-0.017683765
234	0x3cd0a07e	0.025467154
235	0xbbab5888	-0.0052290596
236	0x3cb65a1a	0.02225976
237	0xbd155374	-0.03645654
238	0xbd206aae	-0.039164238
239	0x3be325d8	0.0069320016
240	0xbbe52fb8	-0.006994214
241	0xbd21c524	-0.03949465
242	0x3bf2efb8	0.0074138306
243	0x3c997cf0	0.018736333
244	0x3cbd89ca	0.023136992
245	0xbb4cb650	-0.0031236596
246	0xbbb157f8	-0.005412098
247	0xbcb0cfc3	-0.021583444
248	0xbc5423e0	-0.012948006
249	0x3cef5afe	0.029218193
250	0xbce75c08	-0.028242126
251	0xbcadcaf8	-0.021214947
252	0x3ccaeda2	0.024771515
253	0x3cc125f2	0.023577664
254	0x3c1f6a64	0.009729955
255	0xbd2a6ce7	-0.041607764

layers.11.bias f4 [128]
0	0xbc13bd70	-0.009017333
1	0xbc998cc8	-0.018743888
2	0x3cfbde2a	0.030745585
3	0x3cab224a	0.020890374
4	0x3b3e3d70	0.0029028319
5	0xbabed820	-0.001456026
6	0xbcd68dee	-0.026190724
7	0x3c78cecc	0.015186023
8	0xbc385a80	-0.011252046
9	0x3d12dd03	0.035855304
10	0xbd0a3a36	-0.03374692
11	0x3c6037c4	0.013685171
12	0x3c0ea984	0.008707408
13	0xbd150262	-0.036379226
14	0xbb165600	-0.0022939444
15	0xbce9d3b0	-0.028543323
16	0xbd033cf8	-0.032040566
17	0x3c3c8ae0	0.01150772
18	0xbba89e68	-0.0051458366
19	0xbc8bee13	-0.017081296
20	0x3cf431a2	0.029808823
21	0x3c0cfcd0	0.008605197
22	0x3bf191e8	0.0073721297
23	0xbd131777	-0.03591105
24	0x3cbecefa	0.023292053
25	0x3c288aac	0.010286968
26	0xbbb7b918	-0.0056067817
27	0x3cecc712	0.028903518
28	0xbce7f280	-0.028313875
29	0x3c97f412	0.018548999
30	0x3d1f537f	0.038897987
31	0x3c2e1d8c	0.010627162
32	0x3d2187af	0.03943604
33	0xbd1d0563	-0.038335215
34	0xba54cdc0	-0.00081178173
35	0x3d06a9d5	0.03287681
36	0xbcd7b160	-0.026329696
37	0x3d253c41	0.040340666
38	0x3d17ff87	0.037108924
39	0x3ca45bf2	0.020063374
40	0x3c55c070	0.013046369
41	0xbcb811f6	-0.022469502
42	0xb92b8f00	-0.00016361102
43	0x3bbe9960	0.0058166236
44	0xbc2b2426	-0.01044563
45	0xbc90f363	-0.01769418
46	0x3ce22682	0.027606253
47	0xbcdd75fb	-0.027033797
48	0x3d0959a9	0.033532772
49	0xbc844736	-0.016147237
50	0x3d05256b	0.032506388
51	0x3cb22e1a	0.021750499
52	0x3d180295	0.037111837
53	0x3c9af5ca	0.01891603
54	0xbca52ce8	-0.020163015
55	0xbcf48b60	-0.029851615
56	0x3b03c3d0	0.0020105727
57	0x3ca08512	0.019594703
58	0x3cb0ada2	0.02156717
59	0x3c2d121c	0.0105634
60	0x3d25cb53	0.04047711
61	0xbc843ede	-0.016143259
62	0xba2f2040	-0.0006680526
63	0xbc490de0	-0.012271374
64	0xbc84b83e	-0.016201135
65	0xbc699a20	-0.014257938
66	0x3b2f4a00	0.0026746988
67	0x3c5be6e4	0.013421748
68	0xbbc37e08	-0.005965952
69	0xbcc8bd9b	-0.024504473
70	0xbc0a7730	-0.008451268
71	0xbce2e583	-0.02769733
72	0xbd127c9f	-0.03576338
73	0xbc74cc60	-0.014941305
74	0xbd2740e2	-0.04083336
75	0x3cfbb6aa	0.03072675
76	0x3c424070	0.011856183
77	0xbc91b520	-0.017786562
78	0x39bd8280	0.0003614612
79	0x3d050b81	0.032481674
80	0x3b40eb10	0.0029436983
81	0x3c9ed022	0.019386355
82	0xbd278df3	-0.040906858
83	0x3ca9a52a	0.02070864
84	0x3b0657b0	0.0020499043
85	0x3ce8f28a	0.028435964
86	0x3b6e3140	0.0036345273
87	0x3d170e31	0.03687877
88	0x3c562870	0.0130711645
89	0x3cf5d95a	0.030010868
90	0xbd2a0794	-0.041511133
91	0xbc183770	-0.009290561
92	0xbc5d28c6	-0.013498491
93	0xbc851526	-0.016245436
94	0x3cb7c052	0.022430573
95	0xbc221124	-0.009891782
96	0xbb70a600	-0.0036720037
97	0xbd2338c6	-0.039849065
98	0x3cdc189a	0.0268672
99	0x3d2a4f75	0.041579682
100	0x3c965032	0.018348787
101	0xbd131f02	-0.035918243
102	0x3b196f90	0.0023412444
103	0xbd02998f	-0.031884726
104	0x3ca9137e	0.020639177
105	0x3c18652c	0.009301465
106	0xba2da600	-0.0006624162
107	0xbc6d3ac6	-0.014479345
108	0x3c7e583c	0.015523966
109	0x3d272a93	0.040812086
110	0x3cd58cca	0.02606811
111	0x3cfc7af2	0.030820344
112	0x3bc48938	0.005997803
113	0x3d14495f	0.036202785
114	0xbc4aa47c	-0.012368318
115	0xbd2802eb	-0.041018408
116	0x3c1d7350	0.009610012
117	0xbbbc0ba8	-0.005738694
118	0xbc7dd2c6	-0.015492147
119	0x3ca134e8	0.019678548
120	0x3ce3f192	0.02782515
121	0x3bbdf520	0.0057970434
122	0x3c277aa4	0.010222111
123	0xbccb272e	-0.024798956
124	0x3c29db60	0.0103672445
125	0xbbb76478	-0.0055966936
126	0x3cc00bd2	0.023443136
127	0x3cbef48a	0.023309965

fc1.weight f4 [128, 512]
0	0x3ca6efb2	0.020377968
1	0x3b2ec810	0.002666954
2	0xbd04caf8	-0.03242013
3	0x3c6f033c	0.0145881735
4	0x3cb5b28a	0.02217986
5	0x3ba7e3e8	0.005123604
6	0x3c6715e0	0.0141043365
7	0xbc078434	-0.008271266
8	0x3ccfecce	0.025381472
9	0x3d10a9db	0.035318237
10	0x3ab68f20	0.0013928153
11	0xbc1295cc	-0.008946847
12	0xbd1605c4	-0.036626592
13	0xbc965197	-0.018349452
14	0xbd05d8f8	-0.03267762
15	0x3c2a210c	0.010383856
16	0x3d2c39c7	0.04204729
17	0xbd22c36f	-0.03973716
18	0xbd0da782	-0.034583576
19	0xbcdb4bc2	-0.026769523
20	0x3c219ca8	0.00986401
21	0x3cd04e76	0.025428038
22	0x3c913a72	0.017728064
23	0x3c332028	0.01093296
24	0x3cb69cf6	0.022291642
25	0xbc7f8898	-0.015596531
26	0xbd154a52	-0.03644783
27	0xbc22b32c	-0.009930413
28	0x3d196835	0.037452895
29	0x3c2b4ab8	0.010454826
30	0x3c8128aa	0.01576646
31	0x3c0f1bf4	0.008734692
32	0x3c314668	0.010820009
33	0xbc073b48	-0.00825388
34	0xbd111ee0	-0.035429835
35	0xbb88e478	-0.004177626
36	0xbcb51449	-0.0221044
37	0x3d2f0efd	0.042738903
38	0x3d233a9d	0.03985082
39	0x3c5fadd0	0.01365228
40	0xbd1031f5	-0.035203893
41	0x3b3c5b20	0.0028740838
42	0x3d20b4e5	0.039235014
43	0xbcc9577a	-0.024577845
44	0xbcf3607e	-0.029709097
45	0xbcf779b5	-0.030209402
46	0xbc81d04e	-0.015846398
47	0xbcaec579	-0.021334397
48	0xbbc505c8	-0.006012652
49	0x3cf18b96	0.029485505
50	0x3cfaf456	0.030634087
51	0x3c5b95a4	0.013402376
52	0x3d20052f	0.039067443
53	0xbd34ea8f	-0.044169005
54	0xbcf73a33	-0.030179119
55	0x3c1e0a88	0.0096460655
56	0x3b92d698	0.004481148
57	0xbcda16aa	-0.026622135
58	0x3c9e0cbe	0.019293185
59	0xbd191481	-0.03737307
60	0xbcdc49cc	-0.026890658
61	0xbb3d3560	-0.0028870925
62	0x3cb03cb6	0.021513324
63	0xbc670554	-0.014100391
64	0xbcca8465	-0.024721334
65	0x3ca4ad6e	0.020102229
66	0xbd21947a	-0.03944824
67	0xbb9c33b8	-0.0047669075
68	0xbcc344fb	-0.023836603
69	0x3d2b44a5	0.04181351
70	0x3c55adcc	0.013041925
71	0xbcb4dd16	-0.022078078
72	0xbb921b90	-0.004458852
73	0xbc0daf38	-0.008647732
74	0xbd344165	-0.044007678
75	0x3d14ede7	0.036359694
76	0x3d146429	0.036228333
77	0xb982fc80	-0.0002498366
78	0x3c7d7868	0.015470602
79	0x3cadc79a	0.021213342
80	0x3bb6eb88	0.0055822767
81	0xbb615f10	-0.0034388937
82	0x3cb57bda	0.022153784
83	0xbb6521f0	-0.0034962855
84	0xbbac3f18	-0.005256545
85	0xbc045610	-0.0080771595
86	0xbd05cd83	-0.032666694
87	0xbd16045e	-0.03662526
88	0xbcfff79e	-0.031246003
89	0xbcddd405	-0.027078638
90	0x3c8b455c	0.017000847
91	0xbd040e9a	-0.032240488
92	0x3d21f7e1	0.039543036
93	0x3cd527b6	0.026019912
94	0xbd0f7f01	-0.03503323
95	0xbb29f980	-0.0025936067
96	0x3c0e86d0	0.008699134
97	0x3d00b68b	0.031424087
98	0x3a6a3780	0.0008934662
99	0xbb9acf40	-0.004724413
100	0xbc501d0c	-0.012702238
101	0x3ca646ea	0.020297486
102	0x3ca25ef6	0.019820672
103	0xbce5a6e4	-0.028033681
104	0xbbe002d8	-0.0068362765
105	0xbc20668c	-0.009790074
106	0xbbc64830	-0.006051086
107	0x3ce1669a	0.027514745
108	0x3d08ff67	0.033446696
109	0xbcc0114d	-0.02344575
110	0x3d2e95b9	0.042623255
111	0xbd2ade06	-0.041715644
112	0x3ce0138a	0.027353067
113	0x3c72e818	0.014825843
114	0x3cf1a516	0.029497664
115	0xbc879b9b	-0.01655369
116	0x3b032770	0.002001252
117	0x3d152afd	0.03641795
118	0xbc3713ec	-0.011174183
119	0xbc79105a	-0.015201652
120	0x3bd6cda0	0.006555274
121	0xbcaa879d	-0.020816619
122	0x3c9e01ae	0.01928791
123	0xbbed6e00	-0.007245779
124	0xbca63f19	-0.02029376
125	0x3d18ea8f	0.037333068
126	0x3bd7df18	0.006587874
127	0x3c0ba7e4	0.008523915
128	0xbccdfc8b	-0.025144836
129	0x3cf050ee	0.029335465
130	0x3b5e7000	0.003394127
131	0x3d0bacab	0.034100216
132	0x3d007e67	0.031370547
133	0x3d2cbfed	0.042175222
134	0xba79b540	-0.00095256045
135	0xbb8b9f38	-0.0042609237
136	0x3d122da7	0.03568807
137	0x3c30877c	0.0107744895
138	0xbcd7609e	-0.026291188
139	0x3d2c8095	0.042114813
140	0x3a872960	0.0010312013
141	0x3d18721b	0.037218194
142	0x3c242354	0.0100181885
143	0x3b4bdbb0	0.0031106286
144	0x3d3178ab	0.04332797
145	0x3d2a18e5	0.041527648
146	0x3d2aa3d1	0.041660134
147	0xbd2cd95a	-0.04219947
148	0x3cf4e85e	0.029895958
149	0x3cb8c14e	0.022553112
150	0x3d0adbcd	0.033901025
151	0x3cc1792e	0.023617353
152	0x3bb6b8d8	0.0055762343
153	0x3d028791	0.031867567
154	0x3d001539	0.03127024
155	0x3c51bcd8	0.0128013715
156	0xbce8a93a	-0.028401006
157	0x3b5d21f0	0.0033742152
158	0xbd2ead92	-0.042646
159	0xbc97fadc	-0.018552236
160	0x3cc638ee	0.024197068
161	0xbcca8813	-0.024723088
162	0xbd19830b	-0.037478488
163	0xbd1bf3cd	-0.038074303
164	0xbd2f1d71	-0.042752687
165	0xbd1df76a	-0.03856603
166	0xbcd96d2b	-0.026541313
167	0xbc14612c	-0.009056371
168	0xbc4631bc	-0.012096819
169	0x3d0f508b	0.03498892
170	0x3d166beb	0.036724012
171	0xbce4cb06	-0.02792884
172	0xbc16a39c	-0.009194281
173	0xbd23568f	-0.03987747
174	0xbcf099f0	-0.029370278
175	0x3c690480	0.014222264
176	0xbc1c50f8	-0.009540789
177	0xbc985dd5	-0.01859943
178	0xbbc45338	-0.0059913658
179	0xbd2add69	-0.04171506
180	0xbc960bd7	-0.018316193
181	0x3d2573bd	0.04039358
182	0xbc8e6801	-0.017383577
183	0xbd099462	-0.033588775
184	0xbd1d90ab	-0.038468044
185	0xbd2e5a97	-0.042566862
186	0xbd2fc0eb	-0.04290859
187	0xbcb20a7a	-0.021733511
188	0x3d2105d1	0.039312188
189	0xbc13c0f4	-0.009018172
190	0xbd177a1b	-0.036981683
191	0x3cd40752	0.025882397
192	0xbcb88e5b	-0.022528818
193	0x3cd4ce66	0.025977325
194	0x3d2820e7	0.041047003
195	0xbd14cbd0	-0.036327183
196	0xbc0b9b74	-0.00852095
197	0xbd27de69	-0.04098359
198	0x3cf01f7e	0.029311892
199	0xbb8a0dc8	-0.0042130686
200	0xbcf5d667	-0.030009462
201	0x3c31d29c	0.010853436
202	0x3ca73852	0.020412598
203	0xbc6c7d28	-0.014434136
204	0x3c0b481c	0.008501079
205	0xbc2e9510	-0.010655656
206	0xbcb5f500	-0.022211552
207	0x3c8ae1f6	0.01695345
208	0xbce69494	-0.02814702
209	0x3c572af0	0.013132796
210	0xbd332b36	-0.04374238
211	0xbb1fa190	-0.0024357773
212	0x3bb4df08	0.0055197515
213	0xbc9e4376	-0.019319277
214	0x3c35bd70	0.011092529
215	0x3d279a37	0.040918555
216	0xbabb30a0	-0.0014281459
217	0x3d10738b	0.03526644
218	0xbcde5a51	-0.027142676
219	0x3d12f0f1	0.03587431
220	0x3d0c18cf	0.034203347
221	0x3c6fc270	0.01463376
222	0x3d083f49	0.03326348
223	0xbd2724b4	-0.040806487
224	0x3c5524d8	0.0130092725
225	0xbba81a10	-0.00513006
226	0x3d323955	0.043511707
227	0x3baee8c0	0.0053378046
228	0xb9230500	-0.00015546754
229	0x3d1e4419	0.03863916
230	0x3d217ac9	0.039423738
231	0x3c786578	0.015160911
232	0x3bee3b60	0.0072702616
233	0xbc4cf14c	-0.0125087015
234	0xbc508f28	-0.012729444
235	0x3c89d86a	0.016826827
236	0x3b0472d0	0.0020210035
237	0x3d0e66d5	0.034766037
238	0xbd1e3382	-0.03862334
239	0xbd039d21	-0.03213227
240	0x3d07293f	0.03299832
241	0xbca43ad0	-0.020047575
242	0xbd318817	-0.043342676
243	0x3bd4bf68	0.006492544
244	0xbd1362f8	-0.035983056
245	0xbcbc1c04	-0.022962578
246	0xbc696e74	-0.0142475255
247	0x3cae6efe	0.02129316
248	0xbc9b74c4	-0.018976577
249	0x3c8901a6	0.016724419
250	0xbd3378fb	-0.043816548
251	0xbb78cc00	-0.003796339
252	0xbcb403a9	-0.021974402
253	0x3c8a73a6	0.016900849
254	0xbb0cd270	-0.0021487735
255	0xbc8a4a21	-0.01688105
