checkpoints/cnn_dropout.pt (torch, 630192 bytes, 10 tensors)

conv1.weight f4 [16, 1, 3, 3]
000000 66 25 8b be ea 36 26 be 5d 47 93 3d 21 be b0 3d
       -0.2717697 -0.16231886 0.07191346 0.08630014
000010 cc e8 f9 bd 7d 8a da 3c 2f 1a c6 3e 8f e5 fb 3d
       -0.122026056 0.026677364 0.38691851 0.12299644
000020 ee 3e 19 be bd be d9 3c 97 93 90 bc 62 3c 3e bd
       -0.14965412 0.026580209 -0.017648501 -0.046444304
000030 1a d6 8c 3d 56 f8 93 3e 19 b6 35 be 08 4a 32 be
       0.06876774 0.28900403 -0.17745246 -0.17411053
000040 a6 99 86 3e 94 f8 f5 bd a3 49 91 3d 82 7b 82 3e
       0.262891 -0.12010303 0.07094123 0.25484854
000050 80 2d 6f be 39 de df 3d 1e e1 ac be 78 b7 59 3e
       -0.233572 0.109310575 -0.337655 0.21261394
000060 08 84 c7 3e 2c 99 b1 be 33 09 c8 3c 36 d4 b8 3c
       0.3896792 -0.34687173 0.024418449 0.022562128
000070 95 6d 8a 3e d0 28 cb be d9 8a 70 3e 17 af b5 bb
       0.2703673 -0.39679575 0.23490466 -0.005544554
000080 fa c8 26 3e 73 23 a2 3e d6 5e 93 be af b6 9c be
       0.16287604 0.3166767 -0.28783292 -0.30608127
000090 fc e2 34 be e3 a3 fa bd d2 cb 10 be d8 7c e1 3e
       -0.17664713 -0.1223829 -0.14140251 0.4404056
0000a0 33 07 a8 3d 98 28 8f bd 98 65 2e be 5d 5d cc bd
       0.08204498 -0.069901645 -0.17030942 -0.09978745
0000b0 b6 b7 93 3e dd 67 65 3e 99 cc 35 be 7a ae 9e bb
       0.28851098 0.22402902 -0.17753829 -0.0048425766
0000c0 ca ca 23 be da 40 3e 3d bb 88 d4 3d 47 80 2c be
       -0.15995327 0.046448566 0.10377642 -0.16845809
0000d0 4f 31 8c 3e 70 79 13 bd 9b a0 3c 3e 61 52 c1 3d
       0.2738137 -0.036004484 0.18420641 0.09439541
0000e0 78 2d b9 be f2 21 32 ba 83 20 4d 3d 2c 7a 34 be
       -0.36167502 -0.00067952194 0.050079834 -0.1762473
0000f0 63 1f 00 3d 2e d8 98 bd 53 00 a6 3e 4f 72 f1 3d
       0.031279933 -0.07463108 0.32422122 0.11789381
000100 09 6a e5 bd 66 3f 42 be 91 65 26 be e8 b8 9b 3e
       -0.11201865 -0.18969497 -0.16249682 0.3041451
000110 d2 1b 9d 3d 93 26 1c be 65 ae 80 be 31 e3 01 be
       0.07671322 -0.1524909 -0.25133052 -0.12684323
000120 73 a9 02 bb 41 24 91 bc 83 c4 30 3e e5 f4 9a be
       -0.0019937425 -0.017717483 0.17262463 -0.30264965
000130 4b 11 ab bd 0a c0 c4 3e 1f f3 9d 3e f7 75 ae 3c
       -0.08352908 0.38427764 0.3084955 0.021296484
000140 27 5e a1 3f c3 f5 9d bd 74 77 3c be 56 6a 82 3d
       1.2606858 -0.07712891 -0.18404943 0.06367938
000150 56 07 1c 3e d5 db 74 3e 8c 84 bc bd a6 a1 34 3e
       0.15237173 0.23911984 -0.09204969 0.17639789
000160 a8 20 5b 3c d9 17 f9 bd 98 bf 96 3e 95 1c 5f 3d
       0.013374485 -0.12162752 0.2944305 0.054470617
000170 c1 36 92 be 59 9b a7 be f3 a2 d4 3d 06 1c c1 3e
       -0.285574 -0.32735708 0.103826426 0.37716693
000180 66 36 45 3d c6 4e 8e be f1 c5 e3 3d b2 76 b2 be
       0.04814758 -0.27794474 0.11121739 -0.34856182
000190 1f 8a b7 3e 65 9c 73 3e e7 46 c2 3e 68 1e ad be
       0.35847566 0.23790129 0.3794472 -0.3381226
0001a0 e5 f1 ad 3d 4b ce 51 3e 69 70 06 be cb 9a 47 be
       0.08493403 0.20488851 -0.13128819 -0.19492643
0001b0 55 29 1b be 81 da f8 3d a6 8a 14 be 56 e7 47 be
       -0.15152486 0.12151051 -0.14506015 -0.19521841
0001c0 7d 4a 62 3e 92 9a 07 3e b2 db b2 3e c1 5b 45 3d
       0.22098728 0.13242558 0.3493324 0.048183206
0001d0 e0 0c a4 be e7 61 08 bd a2 69 cc 3a c9 6e 87 3d
       -0.32041073 -0.033296492 0.0015595446 0.066129275
0001e0 53 a0 58 be 98 be 7a 3e ef 4d 95 3d 80 aa 9f bd
       -0.21154909 0.24486768 0.07290255 -0.07796192
0001f0 a0 f0 47 be bb 59 ae 3d b7 6b 07 be 78 b1 2a be
       -0.19525385 0.085132085 -0.13224684 -0.16669261
000200 6f 84 f1 3b 80 ee 86 3d 8f ae 1d bd 32 bc 30 3e
       0.0073705236 0.06588459 -0.03849655 0.17259291
000210 eb 83 a7 3d 9b fb 98 bd a4 76 e9 3d f4 9e 70 3e
       0.08179458 -0.07469865 0.11399582 0.23498136
000220 e1 54 17 3e 29 3a a1 be 21 62 c6 bd d2 4f 79 3e
       0.14778472 -0.31489685 -0.09686685 0.24346855
000230 bb 7d 40 3e 92 62 81 3b b3 a7 15 bc 67 7a 9b be
       0.18797962 0.003948518 -0.009134221 -0.30366823

conv1.bias f4 [16]
000000 1b 7f 1c 3e 7b 57 38 be 69 f8 93 3e 9e 93 62 3c
       0.15282862 -0.18002121 0.2890046 0.01382914
000010 10 91 88 3d e5 7d bc be 29 0d b7 3c 86 8e 45 bf
       0.066682935 -0.368148 0.022345142 -0.771706
000020 b6 24 61 3e e8 a2 68 be ab 80 7f 3c dc 5b e8 bb
       0.2198666 -0.22718394 0.015594642 -0.0070910286
000030 ad b6 a9 3c 3a f0 50 bd bc 49 43 be ab 7d 92 3d
       0.02071699 -0.051010348 -0.19071096 0.071528755

conv2.weight f4 [32, 16, 3, 3]
000000 1a 8a e6 3b d1 9e 8a bd d5 e6 07 be d1 fe b0 bd
       0.007035506 -0.06768573 -0.13271649 -0.08642352
000010 19 95 a1 3c ea 1c 96 bd 7b 49 46 bd 21 f2 24 ba
       0.019724416 -0.07329734 -0.04840992 -0.00062921835
000020 7a 20 f9 bd fd 7c 11 3b ab 64 07 bd 00 2b 0b 3d
       -0.121643975 0.0022199743 -0.03305499 0.033976555
000030 c7 3d 76 bd 09 f3 67 3d 8b 35 80 bd 9d e7 28 3d
       -0.06011751 0.05662826 -0.062602125 0.04123651
000040 2a 6c 7d bc 98 37 6d bd 75 78 fe 3c f5 11 68 3d
       -0.015467683 -0.057914346 0.031063298 0.05665775
000050 15 ab 5d bd c7 3f 31 bc 46 b1 1d bd a7 08 e7 bc
       -0.054118235 -0.010818428 -0.03849914 -0.028202368
000060 a9 7c 05 bc 4a df db 3c 13 45 8a bd a1 8a 03 be
       -0.008147397 0.026839871 -0.06751456 -0.12845851
000070 65 98 9e 3d f8 9f b3 bd 17 70 b1 bd c8 ba 14 bd
       0.07743911 -0.08770746 -0.086639576 -0.03631094
000080 cd 5f 9d bd ca 2f 0e 3d eb 37 c5 3c 68 51 48 3c
       -0.07684288 0.034713544 0.024074515 0.01222644
000090 a2 a5 51 3c 0d e3 9f bd ec 4d 8d bd b8 b2 b6 bd
       0.012795838 -0.078069784 -0.06899628 -0.08920807
0000a0 52 2a be 3c 3f 73 1a be 0c 03 6b 3c d3 5a 07 3d
       0.02321354 -0.15083025 0.014343988 0.0330456
0000b0 89 4c 15 bd 15 b0 28 3c a5 8e 4b bb 4a 48 be bd
       -0.036449943 0.0102958875 -0.0031060365 -0.09291132
0000c0 92 00 71 3d f0 44 d9 3c c4 63 b5 bd a2 6d 0b bd
       0.058838435 0.02652213 -0.088569194 -0.0340401
0000d0 91 7a 92 bc 9b 9c 6f bd 96 19 42 3d 55 1c a3 3b
       -0.01788071 -0.05849896 0.047387682 0.0049777427
0000e0 9f 4f 81 bc 2a 2e 46 3d e5 d7 0f 3d e7 00 16 3d
       -0.015785037 0.04838387 0.035118002 0.036621954
0000f0 1a 07 5a bd d6 28 ba ba 68 3f 03 3d 3d 0f cf bc
       -0.05322943 -0.0014202844 0.03204289 -0.02527582
000100 3f 73 5f bd bb f9 13 bd 21 88 e1 3c 32 30 8c bd
       -0.054553267 -0.036126833 0.027530732 -0.0684513
000110 b3 5e d3 bd b4 f7 c2 bd 65 41 d2 bd 34 97 95 3b
       -0.10320797 -0.09519902 -0.10266379 0.004565144
000120 09 47 44 bd 41 44 8a 3d 04 2c 04 be 19 81 12 bd
       -0.047919307 0.067513 -0.12907416 -0.03576765
000130 f8 fb 1c bd a5 bc 9e bd 26 91 29 3d 11 f1 d7 3c
       -0.038326234 -0.07750825 0.04139819 0.026360067
000140 cc 67 20 be 41 96 8d bc 3a fd 02 3d 3e e9 ea bd
       -0.15664595 -0.01728356 0.031979777 -0.11470269
000150 c7 57 43 bc 48 a7 6f bc 45 c2 e7 3b c4 79 c6 bc
       -0.011922783 -0.014627285 0.0070727193 -0.024227984
000160 bd 5f 92 bd 4e 65 83 bd 45 b6 81 3d 33 a0 d9 bd
       -0.07147167 -0.06415807 0.06333593 -0.10626259
000170 c0 e9 30 bd f9 fe f1 bc 29 6a 7a bd d0 97 6d bd
       -0.04319167 -0.029540526 -0.0611364 -0.058006108
000180 ee db 6b 3c 40 f6 eb bd 01 09 9b bd 87 42 60 bd
       0.014395697 -0.11521578 -0.07570077 -0.054750945
000190 ae d1 77 bd 3e c3 f6 bd 58 39 38 bd f2 52 4b 3d
       -0.0605027 -0.12048958 -0.044976562 0.04963965
0001a0 39 17 85 bd 8f e4 82 3d 46 d5 85 3c f8 6e 7f bd
       -0.0649857 0.0639125 0.016337048 -0.062361687
0001b0 f9 c1 50 be fa c9 43 bd 20 c8 97 bd 16 c8 5c bc
       -0.20386495 -0.04780004 -0.07411218 -0.013475439
0001c0 e7 91 b8 3c 0a 1d 82 bd ea e2 8c bd 46 dc 17 3b
       0.02253051 -0.06353195 -0.06879218 0.0023172065
0001d0 e3 e2 44 bd 18 aa 44 bb 00 f4 3f bd bd d6 3b bd
       -0.04806794 -0.003000861 -0.046863556 -0.045859087
0001e0 cf 6d bd bc 40 50 2d 3c 72 43 04 be f2 9d 5f bd
       -0.02312365 0.010578215 -0.12916353 -0.054593988
0001f0 f2 b3 5a 3d 1e e4 fc bd 2a 70 69 bb c0 20 5d 3d
       0.053394265 -0.123481974 -0.0035619834 0.05398631
000200 59 56 0c bc b6 98 85 bd da 1d 17 bd 1c 40 4b 3d
       -0.008565509 -0.06523268 -0.036893703 0.049621686
000210 74 41 16 3c ae 63 c5 bd 9e b3 eb bc c9 fd 12 bd
       0.009170879 -0.09638153 -0.028772172 -0.03588656
000220 b4 3c a7 bc 54 9b 88 bd 3d 41 1c 3c b4 ee 89 bd
       -0.020414688 -0.066702515 0.009537038 -0.06734982
000230 59 40 8f bb d3 d8 95 3c c4 33 af 3b ca 28 77 bd
       -0.0043716845 0.018291866 0.005346747 -0.060341634
000240 af 04 90 3d 6f dc 11 3e 55 84 83 be 9a 88 e0 bc
       0.07032143 0.14244245 -0.256869 -0.027408887
000250 04 43 fe 3b b0 2f 45 be b5 a1 bb 3d ea 6e 1d 3e
       0.0077594537 -0.19256473 0.091617025 0.15374342
000260 2d 6a 5d be 12 07 c0 3c 5b 7e 2c 3d 9d 21 f2 bc
       -0.21622534 0.023440871 0.04211269 -0.029557044
000270 3a 50 90 bb 73 0a 95 bd 3b e3 72 bd 6f b9 5b bd
       -0.004404095 -0.07277384 -0.059298735 -0.05364364
000280 3d 75 1b bc 5f 91 a5 ba b4 84 2f 3e 56 eb c8 3d
       -0.009488401 -0.0012631825 0.17140466 0.09810512
000290 6f 75 aa be e8 cc 0d 3e 6f 94 01 3e f4 8a 9d be
       -0.3329272 0.13847697 0.12654279 -0.30770075
0002a0 c4 f3 19 3e 85 69 98 3d cb 93 87 be d8 b5 32 bd
       0.15034395 0.07442001 -0.26479945 -0.04363045
0002b0 4b 79 0a be 35 23 9d bb 83 0f ee bd 40 86 32 be
       -0.13522832 -0.004795457 -0.116240524 -0.17434025
0002c0 ec c6 15 bd 4f 3f 8a 3c 3c 41 49 bd 07 0a 0b be
       -0.03656666 0.016875891 -0.049134478 -0.13578044
0002d0 35 71 4a 3b a9 e3 25 bb cf 89 0a be ae f5 7d bd
       0.003089023 -0.0025312698 -0.13529132 -0.062001877
0002e0 fc 7e 2a 3d bd 25 6e bd fb fb 84 3d de 26 f6 bc
       0.041625008 -0.05814146 0.06493374 -0.03004783
0002f0 4e e8 40 be 7b e5 1a bc c7 45 93 bc 97 41 48 bd
       -0.18838617 -0.0094541265 -0.017977608 -0.048890676
000300 33 78 0f 3d 87 3d 0a 3c 46 08 1a 3d 69 e9 eb bc
       0.03502674 0.008437521 0.037605546 -0.028797822
000310 e3 8b f5 bc 13 c6 0e bd 41 98 31 3d 27 a8 83 bd
       -0.02997393 -0.034856867 0.04335809 -0.06428557
000320 ee 0c f7 bb f2 3f 8c bc c1 ef 59 bd 7d 42 86 bd
       -0.007539383 -0.017120335 -0.053207163 -0.065556504
000330 13 9b 31 3d ae e5 b2 3c fd ee 1a bd ed b8 dc bd
       0.04336078 0.021838035 -0.037825573 -0.10777459
000340 86 c2 1e bc bf fa cf 3a 3a 2a d0 bd f5 d3 28 be
       -0.009689933 0.0015867575 -0.10164304 -0.16487105
000350 65 dc 1f bd 14 c8 77 bd 34 6b 0b be 37 1a 57 bd
       -0.039028544 -0.060493544 -0.13615113 -0.052515235
000360 b4 74 4a 3d b8 d6 37 3e 29 3d a2 be ae b5 00 3e
       0.049427703 0.17953002 -0.31687286 0.12569305
000370 e1 70 ad 3d f1 5f 89 be 6d c0 e4 3d b3 53 73 3d
       0.084687956 -0.2683101 0.11169515 0.059405994
000380 96 ac ae be 41 c6 24 bc 7f 46 4b 3d 00 a2 89 bd
       -0.34116048 -0.010057033 0.049627777 -0.06720352
000390 70 de 83 bd 65 e7 89 bd 97 0f ee bc 04 a6 f1 bd
       -0.06438911 -0.06733588 -0.029060168 -0.11799243
0003a0 39 ed b9 bd ef b7 13 bd cc ad 77 bc 8f 40 b0 bc
       -0.0907845 -0.036064085 -0.01511712 -0.021515159
0003b0 49 c0 1e bd 01 6a 12 bd bd 4d 95 bc c4 d2 fc bd
       -0.038757596 -0.035745624 -0.018225545 -0.12344888
0003c0 b1 bb 7d bc ed d9 a4 3d b8 75 cb bb a8 2e 5d 3e
       -0.015486644 0.080493785 -0.0062091015 0.21599829
0003d0 ae 77 95 3c 9f 49 a6 bd 2b 7c c4 39 27 20 0c 3e
       0.018245544 -0.08119511 0.00037476546 0.1368414
0003e0 49 77 57 be ed cd 3a 3c 59 50 93 3d 18 5a 32 be
       -0.21041597 0.011401636 0.071930595 -0.1741718
0003f0 ed 4b 83 bd 99 fb 20 3e 63 1b cc 3d 3f 5d 7e bd
       -0.06410966 0.15720977 0.09966161 -0.062100645

conv2.bias f4 [32]
000000 6f 8d ba 3c c1 d3 10 3e bf 6d 2b 3e 3b 6a 8c 3d
       0.022772519 0.14143278 0.16741084 0.06856199
000010 b5 39 5b be 2c 87 b8 bd 1d b1 8b bd c6 7b b4 bd
       -0.21408732 -0.09010157 -0.06820891 -0.088126704
000020 6f f3 80 3d ca 52 14 3d 78 cb 84 3d 6b c7 53 be
       0.06296431 0.036211766 0.06484121 -0.2068154
000030 f4 9d 20 bd 44 fc 26 3d 87 20 f9 3b de cd 1e bd
       -0.039213136 0.040767923 0.0076027545 -0.03877055
000040 79 47 2a 3d e3 7b 0f be 8a b9 93 bb d0 c6 19 be
       0.041572068 -0.14012103 -0.004508202 -0.15017247
000050 51 c1 86 bd be f9 2f bd 0d 9d 51 be bd fc 9e 3d
       -0.06579841 -0.042962782 -0.20470066 0.0776305
000060 a1 10 94 bd eb ae 8e bb fb 9f ad 3c 74 07 75 bd
       -0.07229734 -0.004354348 0.021194449 -0.05982156
000070 ac 27 6e 3d 3c 31 e1 bc 10 de 09 bd 22 7c be 3c
       0.058143303 -0.027489297 -0.03365904 0.02325255

conv3.weight f4 [64, 32, 3, 3]
000000 45 dd b7 3c 23 0a ac bc d0 4f a2 bd e4 99 78 3d
       0.022444377 -0.021000927 -0.07925379 0.060693637
000010 3c 58 df bc d2 2f 38 bd 71 f8 06 bc 1a d3 da 3c
       -0.027263753 -0.04496748 -0.008237944 0.02671199
000020 8a d2 00 3c 88 54 b1 bc 1f 77 b2 bb 06 7f 64 bd
       0.007862696 -0.021646753 -0.0054463292 -0.0557852
000030 53 87 be 3c f7 27 ee bc d8 46 1e bd 50 04 14 bc
       0.023257887 -0.029071791 -0.03864178 -0.009034231
000040 a2 13 65 bd 82 32 bf bc 2c ef 59 bc fc 6a 34 bc
       -0.055926926 -0.023339514 -0.013301652 -0.011011835
000050 ef 91 11 be d1 51 2d bd 1b 4c 41 bd 7d d4 f9 bc
       -0.14215825 -0.042314354 -0.04719172 -0.03049683
000060 c4 b4 ca bc 26 6b 4f 3d c0 7b 3e bc 4b 45 1d bd
       -0.024744399 0.050639294 -0.011626184 -0.03839616
000070 97 83 f7 bc 2f e5 b7 bd ee 89 88 3d fc 09 23 3d
       -0.030214114 -0.0897926 0.06666933 0.039804444
000080 f2 c8 da 3d b2 71 57 bd 5a 5d ae 3c 5e 64 3f 3d
       0.106828585 -0.052598663 0.021284748 0.046726577
000090 21 c8 1e 3e 46 8a 4c 3d b5 05 c4 3d 7b 9e 16 3e
       0.1550603 0.049936555 0.09571401 0.14708893
0000a0 5d fe 07 3e 35 07 ee 3d 32 2b c5 bd 2d 7e 8d bd
       0.13280626 0.116224684 -0.096273795 -0.06908832
0000b0 2b 07 6c bb 90 3b 0e bd 69 4d b9 3a ba ef d3 bd
       -0.0036015015 -0.034724772 0.001413745 -0.103484586
0000c0 dc 9f 45 bd aa e3 09 3b de 04 de bd 5b ed b2 bc
       -0.048248157 0.002104024 -0.10840772 -0.021841696
0000d0 8d 2e 1e bc fe d3 36 bd 1b f4 e6 3c 5e c6 91 bc
       -0.009654653 -0.044635765 0.02819257 -0.017794784
0000e0 37 76 d3 3c 12 5b 27 bc c3 c8 be 3c f5 72 0b 3c
       0.025813205 -0.010214584 0.02328909 0.008511295
0000f0 63 01 8c bd d3 49 b8 3c 71 10 bb 3b c2 f4 5b 3d
       -0.06836202 0.02249614 0.005708747 0.053700216
000100 fd 32 c1 3c 09 d2 59 3d ca 57 09 3d 1f 0c 7d bd
       0.023583883 0.05317882 0.033530988 -0.061779138
000110 48 28 21 3c cb 6d a1 3c 69 e2 45 bb db fe cd 3c
       0.009836264 0.019705674 -0.0030194765 0.025145939
000120 9a c5 d9 3c 99 b6 c5 bc 25 6b 25 3d 49 9d 63 3c
       0.026583482 -0.02413492 0.040385384 0.01389248
000130 b9 a7 e9 3c 9c 85 90 3d 17 08 09 be 5d e2 fe bd
       0.02852236 0.07056734 -0.13381992 -0.12445519
000140 d3 a5 30 bd 99 f7 7f be 92 78 eb bd e4 dc 82 bd
       -0.043126892 -0.24996795 -0.11497606 -0.06389788
000150 fb 45 86 be 86 67 25 be 26 53 51 be c2 2b dc bd
       -0.26225266 -0.16152772 -0.20441875 -0.10750534
000160 4b 3b 99 bd 9f 02 48 be 21 87 c0 bd 9e 65 73 3c
       -0.07482012 -0.1953225 -0.09400774 0.01485577
000170 73 de 4d bd f5 57 fc bc 82 9c b6 bd c2 73 09 bd
       -0.050260972 -0.03080366 -0.0891657 -0.03355766
000180 a1 98 c0 bd 89 b9 43 bd ac 49 aa bc 55 dc 91 3d
       -0.09404112 -0.047784362 -0.020787083 0.07122103
000190 61 ca 94 3c 34 fa 0d 3c bc e0 2d 3d ac 48 95 3d
       0.018162908 0.00866561 0.04245065 0.07289252
0001a0 03 74 36 3d b6 f8 4c 3d 16 77 7e 3d 21 77 fe 3b
       0.04454423 0.050041877 0.062125288 0.007765666
0001b0 eb 9d 50 bd c7 a0 85 bc 72 95 8e 3c 26 aa de 3c
       -0.050931852 -0.016312016 0.017405245 0.027180742
0001c0 7e 62 b8 bc f5 bb 53 bd 69 b8 86 3c ee db 2f bd
       -0.022507902 -0.05169292 0.016445355 -0.04293435
0001d0 6a de c9 3c 00 1a 25 3c fc 5d 92 bb e4 8a 36 3d
       0.024642188 0.010077 -0.00446677 0.04456605
0001e0 86 28 c4 3c 04 86 22 3d fd c8 fb bc 60 35 1e bd
       0.023945104 0.03967859 -0.030735487 -0.03862512
0001f0 ac 46 09 bd 60 62 e0 3b 21 bc a1 be a0 02 a7 be
       -0.033514664 0.0068476647 -0.31588843 -0.3261919
000200 22 a5 0b be 93 fa 85 bd cc ef a9 bd 1c 22 3f 3c
       -0.13637212 -0.06541934 -0.08297691 0.011665847
000210 e5 2d 80 bd f9 22 f1 bc 56 fb 4f 3d 44 fa 64 3d
       -0.06258754 -0.029435622 0.050776802 0.055902734
000220 de fd f3 3c 23 c8 ce 3d 3b 74 cc 3b ea b2 54 3d
       0.02978414 0.10096767 0.0062394417 0.05192844
000230 90 42 ec 3d 65 04 c6 3c f1 86 02 3d 79 95 c5 3c
       0.11536133 0.024172017 0.03186697 0.024119126
000240 79 61 e1 b8 c4 34 6a 3d 03 86 63 3d 70 5b 02 bd
       -0.00010746992 0.057179227 0.055547725 -0.031825483
000250 8f 7f 0c be b1 28 25 be 64 0d 93 3d 6a 39 31 be
       -0.13720535 -0.16128804 0.071802884 -0.17307058
000260 5e 8f d2 bd 14 21 96 3d 98 bd be 3c 6b e6 7e 3c
       -0.10281251 0.07330528 0.023283765 0.015557866
000270 db 3e 91 bc 42 bb 40 3b 30 60 ac 3d d9 94 22 be
       -0.017730167 0.002940849 0.08416784 -0.15877093
000280 58 d4 fb bd 61 09 02 bd 46 d5 42 3d d3 79 1b 3d
       -0.12296361 -0.031747226 0.047566675 0.037957978
000290 5e 5d 22 bd be 69 fb 3b 66 31 30 3d 82 11 5d 3d
       -0.039639823 0.0076725176 0.04301586 0.053971775
0002a0 55 f1 9c 3b 44 46 fc bb 66 84 12 bd 82 76 02 bd
       0.004789511 -0.007698806 -0.035770796 -0.0318513
0002b0 cd 02 86 3d 65 6b 99 3b 8a c6 47 bb ff 23 0a 3d
       0.06543503 0.004681992 -0.0030483329 0.033725735
0002c0 81 92 d1 bd 4f fa a8 bc 11 5c 4c 3d 1c a6 b2 3b
       -0.102330215 -0.020627169 0.04989249 0.0054519307
0002d0 c3 83 02 3d 98 33 c7 bb 79 55 13 bd 39 ee 98 bd
       0.03186394 -0.0060791485 -0.035970185 -0.07467312
0002e0 16 e6 82 bc cd ba 62 bc 42 87 90 bd 5f 33 a6 bd
       -0.015978854 -0.013838482 -0.070570484 -0.08115267
0002f0 6c 3a 22 3d b7 5d 94 3d b6 35 1e 3e 43 59 99 3d
       0.039606497 0.07244437 0.15450177 0.074877284
000300 9f 6d ea 3d c2 4d 3c 3e 59 b7 f1 3d 0c 8e 31 be
       0.1144669 0.18389037 0.11802549 -0.17339343
000310 c7 a9 9f bc ba 6e 80 bc fc 90 67 3d b4 64 ff 3c
       -0.019490136 -0.015677799 0.056534752 0.031175949
000320 7c c4 5d 3d 24 fd f2 3d f6 5d d9 3d e3 26 59 3d
       0.05414246 0.11864689 0.10613625 0.0530156
000330 79 ac 61 bd 10 d1 00 3d 5f d6 99 bb 6e 5d 3a bc
       -0.055096123 0.031449378 -0.0046947445 -0.011374814
000340 6e 77 93 bc 17 14 dc 3d 81 97 8d 3c de 30 3b ba
       -0.018001284 0.10746019 0.017284157 -0.00071407657
000350 d9 ba 6a 3c 1f 9c 82 bd 9b b1 0d 3d 6d 30 c4 3c
       0.0143267745 -0.06377434 0.034593206 0.023948872
000360 43 7f b3 3b 6f 84 97 3b 0e 85 fe 3c 5d a2 5b bd
       0.0054778173 0.0046239416 0.031069305 -0.05362164
000370 ad 88 1f bc d5 28 a7 bc 48 cc ff bc 25 59 47 3d
       -0.009737176 -0.020405212 -0.031225339 0.048669
000380 98 9b 08 3d 1d 34 ad 3c 16 23 e2 bc 07 43 e3 3c
       0.03335151 0.021143014 -0.02760462 0.027741922
000390 26 d3 fd bc da ce 33 bc d5 9a b8 3b a9 e9 10 bd
       -0.030984472 -0.01097461 0.005633692 -0.035379086
0003a0 21 4d 29 bd 77 0b 17 bc 63 45 fa bc 3f 00 3e 3b
       -0.04133332 -0.009219042 -0.030550664 0.0028991846
0003b0 b2 0d 81 bc 82 67 6b bc 68 f9 9f bb fc 96 78 3d
       -0.0157536 -0.01436794 -0.0048820265 0.060690865
0003c0 5a 72 95 3d 30 f2 0f bd 82 56 b0 3d 28 7e 84 bd
       0.072972015 -0.035143077 0.0861025 -0.06469375
0003d0 fc 68 a1 bc 16 5b 7a bd 97 ef e0 3b 91 01 e4 3c
       -0.01970338 -0.061122023 0.006864499 0.027832778
0003e0 20 ef e2 bc da 64 a1 bd ea 59 3b bd 7b 53 ac bd
       -0.027701914 -0.07880564 -0.045740046 -0.0841436
0003f0 eb 6f b7 bd d3 ea 10 be 3b 86 f4 bd 5c e9 de bd
       -0.089568935 -0.14152078 -0.11939665 -0.108843535

conv3.bias f4 [64]
000000 0a 81 e7 bc 26 6f 2a be c4 12 7f 3d 96 62 ff 3d
       -0.028259773 -0.16643962 0.062273756 0.12469976
000010 f4 be 83 be fd 08 88 bd f8 7c e3 3c b1 31 14 bd
       -0.25731623 -0.066423394 0.02776955 -0.036180202
000020 f2 ad 00 be ca 3a 9f bd 03 2c 9b 3d 12 03 cb bc
       -0.12566355 -0.07774885 0.07576754 -0.024781737
000030 1b 7a b1 bd 2d 0c 3c 3e b1 06 d0 bd ce 01 23 3d
       -0.08665868 0.1836402 -0.10157526 0.039796643
000040 b1 c0 ba 3d c4 ce 8a bd dc 00 9e bc bc e9 9b bc
       0.09118784 -0.06777719 -0.01928752 -0.019032352
000050 43 31 a6 3d 7e 8a 68 bd 7d a6 db bc 16 fd c4 3d
       0.08114865 -0.0567727 -0.026812786 0.09618585
000060 a2 b1 86 bd 5f a2 40 bd c5 44 58 be 65 eb 8c 3c
       -0.065768495 -0.04702985 -0.21119983 0.017202089
000070 b9 a4 b4 bd e4 ed 9a bd eb d8 75 bd b4 d0 42 be
       -0.08820481 -0.07564905 -0.060021322 -0.19024926
000080 95 bb 35 bd 95 9d 1e 3d c1 08 db bd be 2f 30 bd
       -0.044368345 0.0387245 -0.10695029 -0.04301428
000090 14 2f 3a be 45 43 d2 bd 14 98 2c bd 9c 12 40 be
       -0.18182021 -0.10266737 -0.04213722 -0.18757099
0000a0 ab 21 a0 bd 87 c1 09 be 23 e4 91 bd b7 2e a5 bd
       -0.07818922 -0.13452731 -0.07123592 -0.08065551
0000b0 65 49 d6 bd 2e 28 52 bd d1 78 74 bd 97 33 51 bd
       -0.10463218 -0.05130785 -0.059685532 -0.05107459
0000c0 27 e7 9e bc c2 52 c4 3d c4 3b 95 bd f1 5f bd bd
       -0.019397331 0.09586097 -0.0728679 -0.09246815
0000d0 91 41 85 be 22 07 3e be 1e a7 c0 bd d8 84 97 3d
       -0.26026586 -0.18557408 -0.09406875 0.07398385
0000e0 88 55 b7 bd 10 de c6 bc e7 73 b8 bd e0 41 9f 3d
       -0.08951861 -0.02427581 -0.090064816 0.077762365
0000f0 5a a5 a0 bd eb 30 90 3d 81 3a b8 bd dc 4d 96 bd
       -0.07844038 0.0704058 -0.08995534 -0.07339069

fc1.weight f4 [128, 1024]
000000 b3 bd 88 bc 44 72 87 bd 89 df b0 bc 3c 92 15 bd
       -0.016692018 -0.06613591 -0.021590965 -0.036516413
000010 a2 ab ab 3c c1 40 1d bd f6 d0 7d 3c f7 62 2c bc
       0.020955864 -0.038391832 0.015491715 -0.010521642
000020 92 b3 07 bd 9b b1 3d 3b 24 54 2a bd 82 f8 d0 bb
       -0.033130236 0.0028944972 -0.04158415 -0.0063772807
000030 23 39 b3 bc 75 8b 06 bd 49 7e 30 bd 14 64 a1 bd
       -0.02187783 -0.03284784 -0.043089185 -0.078804165
000040 9d d7 20 bd 8f 9c f0 bc 9f 73 8d bd 8d 63 bf bd
       -0.039268125 -0.029371528 -0.069068186 -0.0934516
000050 ef af dc 3b 33 9c b1 3c 45 fa bb bc ce c3 05 3d
       0.00673484 0.021680927 -0.022946486 0.032657437
000060 0f f9 88 bc 42 59 f5 bb 53 5f 8a 3b 4a dc c3 bb
       -0.016720323 -0.007487447 0.0042227893 -0.0059771882
000070 64 33 97 3c b4 ea 8d bc 77 2e f7 bc 0f 06 a8 bd
       0.018457122 -0.01732383 -0.030173523 -0.082042806
000080 db 94 37 3c 9f a3 33 bb 09 48 70 bd 4d bf a3 bc
       0.0112049235 -0.0027410758 -0.058662448 -0.01998868
000090 fa 29 b9 3c 3f 48 2a 3d 4a d2 f0 bc 17 48 9f bc
       0.022603024 0.041572805 -0.029397149 -0.019443555
0000a0 5c 9a 1f bc 1c df 70 bc 80 76 4c bd 6f 02 5f bd
       -0.009741392 -0.014701631 -0.049917698 -0.05444568
0000b0 ee eb d9 3c 8f 3c 0e 3d 66 51 3b bd 85 75 f5 bb
       0.026601758 0.034725722 -0.045731924 -0.007490816
0000c0 63 16 1c bc 52 07 2c bc 3f 2f f9 ba 6c c0 7f bc
       -0.009526822 -0.010499792 -0.0019011273 -0.015609842
0000d0 79 14 d5 3c b7 6f 1d 3b 7c d7 fc bc 68 c6 c2 bc
       0.026010739 0.0024022886 -0.03086447 -0.023776248
0000e0 e0 e2 c6 3c 64 38 b8 bb 37 1f 42 3c ee 8d 0c bd
       0.024278104 -0.0056219567 0.0118482625 -0.034315042
0000f0 72 e1 69 3c ce ef 07 3b 5c c7 93 bc 9e 74 91 bc
       0.014274942 0.00207423 -0.018039398 -0.017755803
000100 60 f2 60 3c 6c 06 46 bc 51 7e 85 bc ff 02 89 bd
       0.013729662 -0.012086492 -0.016295584 -0.066900246
000110 14 40 93 bc 61 76 1a bd 99 13 a2 bd c0 64 df bc
       -0.01797489 -0.03771055 -0.07913894 -0.027269721
000120 2c 68 00 3c dd 04 a3 3c f8 81 3e bd 38 8a 4d bd
       0.0078373365 0.01989978 -0.046510667 -0.050180644
000130 f2 e0 d4 bc 40 51 1d bd ae 2e 98 bd 5d 8f 3c bd
       -0.025986169 -0.038407564 -0.074307784 -0.04603516
000140 6c 93 0d 3c da b4 cc bc 10 b5 d1 3b a0 66 0e bb
       0.008641105 -0.02498858 0.006399758 -0.002172865
000150 d0 20 8e 3b 80 9d d0 b9 d4 8f 42 3c 88 7b 88 3b
       0.0043374076 -0.00039790198 0.011875112 0.0041651167
000160 44 0f 3b 3c 7a 6c e6 3c 8e fa 80 bc 38 7c d1 bc
       0.011417214 0.028127898 -0.015744474 -0.025571927
000170 80 70 b4 b9 88 83 76 3c b4 b2 31 3c 48 c4 6a 3c
       -0.00034416094 0.015046008 0.010845829 0.014329024
000180 2d bf f8 3b 8a 35 c8 bc 60 29 9d bd 5d 38 6f bd
       0.0075911493 -0.024439592 -0.07673907 -0.05840336
000190 0a 65 94 3c fc b3 3d bd 30 03 27 bd 62 ac fa bc
       0.018114585 -0.046314225 -0.040774524 -0.030599777
0001a0 88 19 92 bb d3 1c ee bd b7 ea 4b bd 83 44 2f bd
       -0.00445861 -0.116265915 -0.04978439 -0.042789947
0001b0 0c e6 ac bc 40 45 67 3a 38 ed ec bc e8 0f cd 3b
       -0.021105789 0.000882227 -0.028921708 0.0062579997
0001c0 69 e6 57 bc ad 7c fc bc 9a e5 2d 3b 94 8b a4 bc
       -0.013177493 -0.030821169 0.0026534558 -0.020086087
0001d0 88 50 69 3c cd 70 6b bc a7 0b 3f 3c 44 a3 d7 bc
       0.014240392 -0.0143701555 0.011660493 -0.026322968
0001e0 cd 26 ba 3c 94 cb 0e bd 9e 84 db 3b 8c f3 9f bc
       0.02272358 -0.034862116 0.006699159 -0.019525312
0001f0 0c 1c ef 3c ae 06 be bc 3b b6 43 bc 5c f6 88 bc
       0.029188178 -0.023196544 -0.011945303 -0.016719036
000200 cf 22 c6 bb 7b c6 9f bb 2e 1c bb 3c a9 c8 66 bd
       -0.00604663 -0.0048759556 0.022840586 -0.05634371
000210 a9 07 fe bc 79 11 ac 3a 42 43 b8 bb fb 2a 30 bd
       -0.031009512 0.0013127766 -0.005623252 -0.04300974
000220 14 74 bf 3c 94 87 30 3c 85 16 05 bd a8 e5 d3 bd
       0.02337078 0.010774512 -0.03249218 -0.10346538
000230 17 c0 86 3c 80 ef b3 bb 10 f3 17 bc e9 ca e1 bd
       0.016449017 -0.005491197 -0.009274259 -0.1102503
000240 a0 4a 03 bc 10 ba 2b bb c0 0d a1 bc ca 63 bb 3c
       -0.008013397 -0.0026203431 -0.019659877 0.022874732
000250 b0 bd 7b 3b 8c f4 4e 3c d8 21 ab 3c d0 4a d2 3c
       0.0038412623 0.012631547 0.020890161 0.025670439
000260 e2 40 86 bc b6 4a 9f bc 10 e9 dd bc 04 9a 63 3c
       -0.01638836 -0.019444805 -0.027088672 0.013891701
000270 fe 66 d0 bc 96 ed 85 bc e8 eb ad bc ee 3f b3 bc
       -0.025439736 -0.016348641 -0.021230653 -0.02188107
000280 9c 60 62 bd a2 a5 9c bd d4 d1 1d bd 62 25 8d bc
       -0.055267915 -0.076487795 -0.038530186 -0.01722974
000290 34 cc 3f 3c 38 a8 9e bd ea 86 d1 bc 8a ca cd bd
       0.011706401 -0.07746929 -0.025577027 -0.10048397
0002a0 94 c1 58 bc 01 d8 a6 bd e0 ea a7 3c 17 5a 1c be
       -0.013229746 -0.08146668 0.02049774 -0.15268742
0002b0 34 8e c2 3c 76 87 77 bc 94 aa 48 bc b5 d4 95 bd
       0.023749448 -0.01510798 -0.0122477 -0.07315961
0002c0 cc a1 a1 3c b3 17 32 3c 9b 31 f2 3b f9 3b 25 3b
       0.019730471 0.010869908 0.0073911673 0.0025212748
0002d0 64 b0 3b 3c ff 83 8e 3c d4 3c df 3c a0 5a 7f ba
       0.011455629 0.017396925 0.027250685 -0.0009740982
0002e0 12 dc a0 bc 6e 6b b5 bc 68 96 ab 3c 76 f4 58 bb
       -0.019636188 -0.022145953 0.020945743 -0.0033104694
0002f0 e0 62 87 bb da d8 a8 bc b7 7e a7 3c 78 11 49 bc
       -0.00413166 -0.020611215 0.020446165 -0.012272231
000300 ca 7d e1 bc e2 1f fd 3c e0 2e ad bb 68 4c 9b 3c
       -0.027525801 0.030898992 -0.005285129 0.018957332
000310 14 e9 68 bc f8 74 32 bc 12 ae f8 bc ac c2 ab 3c
       -0.014215726 -0.010892145 -0.03035644 0.02096685
000320 c0 36 95 3b 0e 6a 94 bc 26 64 e8 bc 56 ec a9 bc
       0.004553646 -0.018116977 -0.028368067 -0.020742577
000330 48 2f ed 3c e0 8e ad bb 5c 11 fc 3c e8 22 99 bc
       0.02895321 -0.005296573 0.030769996 -0.018693402
000340 60 0a af bc d1 b4 73 bd 23 79 dc 3b 65 e8 64 3d
       -0.021367252 -0.05949861 0.006728308 0.05588569
000350 59 ac 6f 3c 54 fe 67 bd 8d 6c 14 bb 6f f7 c2 bb
       0.014628493 -0.05663903 -0.002264771 -0.0059499065
000360 5b 96 a7 bb ff ed 47 bb 8e 5c 17 bd f4 f3 66 bd
       -0.0051143593 -0.0030506847 -0.0369535 -0.056384996
000370 23 d8 ef 3c 44 6c 81 bd 64 02 30 bd e8 d6 82 3b
       0.029277867 -0.06319478 -0.04297103 0.003992904
000380 a9 16 96 bc e0 d2 cd 3a db 6c 53 3c 7a 8a 04 bd
       -0.018321352 0.0015703104 0.012904371 -0.032358624
000390 43 84 d8 bc e9 88 49 39 f1 dc 0d bc 9b a3 21 3b
       -0.026430255 0.00019219857 -0.008658634 0.0024664167
0003a0 d8 fe c9 3a 7f 7a 35 bc b9 1f 32 3c a3 3e 1b bc
       0.0015411032 -0.011076569 0.010871821 -0.009475383
0003b0 68 26 67 3c 58 86 1d bd 2e 85 d0 3c 1b 16 d0 bc
       0.014108278 -0.0384582 0.02545413 -0.025401166
0003c0 d0 ac aa bb db 20 bf 3c 7b dd 96 3a fd f8 68 bd
       -0.005208589 0.023331096 0.0011510098 -0.05687808
0003d0 c0 e6 4c 3a 10 36 54 3d ee 3d 9a bc 18 05 2c bd
       0.0007816367 0.05180937 -0.018828359 -0.041997045
0003e0 00 58 91 37 67 dc 70 3c 4f 39 b9 bc 54 aa b6 3b
       1.7326325e-05 0.0147009855 -0.022610335 0.005574504
0003f0 64 60 12 3c c0 ca 77 3c ef 75 7d bc 1e 0b 63 bd
       0.008934114 0.015124023 -0.015470012 -0.055430524

fc1.bias f4 [128]
000000 ce 74 68 bd 8a 25 2c bc a2 a6 c3 bd 09 19 37 3e
       -0.05675202 -0.010506997 -0.09553267 0.17880644
000010 0e 30 49 3e 35 65 34 3e 0c 00 d0 bd ed b6 78 3e
       0.19647238 0.17616732 -0.10156259 0.2428853
000020 25 fa 94 3d ac a6 b3 bd 32 c3 75 bc a6 3e 17 3e
       0.07274274 -0.087720245 -0.0150001515 0.14769992
000030 0e c4 a5 bd 72 05 32 3e 55 05 a6 3d 23 a6 3d 3e
       -0.08094035 0.1738489 0.08106486 0.18520407
000040 83 7c a4 bd a0 ff 45 bd 89 e0 36 3e f7 1a 68 bd
       -0.08031561 -0.048339486 0.17859091 -0.05666634
000050 6e 5c 57 bd a1 27 27 3e 8b 0c ae bd 54 96 30 bd
       -0.052578382 0.16323711 -0.08498486 -0.043112114
000060 a3 99 f7 bc 2b 1f 37 3d 83 cf 06 3e d7 75 ac bd
       -0.030224627 0.04470746 0.13165097 -0.08420914
000070 88 c4 66 bd 62 84 b5 3d 17 5a 6a bd 2a fd 17 3e
       -0.05633977 0.08863141 -0.057214823 0.14842668
000080 48 3a 02 3e 0c f1 1a 3e cd 92 72 3e 6a 61 ca bd
       0.12717545 0.15131015 0.23688813 -0.098818615
000090 65 f2 1e 3e 46 59 37 3e a7 88 be 3d 05 d9 44 bd
       0.15522154 0.17905149 0.09303408 -0.04805853
0000a0 5b bf 7b bd 44 1e 9e 3c 9f 23 5d bd 1e 69 18 be
       -0.061461788 0.019301541 -0.05398905 -0.14883849
0000b0 18 ae c6 3d ed 90 95 bd ba 17 46 bd 3d ae 03 bd
       0.097011745 -0.07303033 -0.04836247 -0.03214859
0000c0 e0 11 88 3e 56 b9 73 bd 2a 72 8c bd f9 2a 93 bd
       0.26576138 -0.059502922 -0.068577126 -0.07185931
0000d0 48 e6 d3 3b 39 20 44 bb ba a8 8a 3d 75 58 b2 bd
       0.0064666606 -0.0029926433 0.06770463 -0.08708278
0000e0 e1 6f 33 3e 51 62 b4 bc 63 a0 8c 3d e7 f4 31 3e
       0.17523147 -0.022019537 0.06866529 0.17378579
0000f0 bd 81 c5 bd 06 a4 22 3e ac d1 4d bd 3a 7e 70 bd
       -0.09643886 0.15882882 -0.050248787 -0.05871413
000100 79 76 1b 3d 35 8f ef 3d 96 be 3f 3e a7 71 55 3e
       0.03795478 0.116972364 0.18725047 0.20844136
000110 93 2b c1 bd 86 74 b6 3d fc ca 70 bc f4 46 2b bd
       -0.09432139 0.08908944 -0.014696833 -0.041815713
000120 86 c9 f4 3c f7 ae 99 bd e2 af 80 3e 00 96 48 bd
       0.02988125 -0.07504075 0.25134188 -0.048971176
000130 c6 fb 12 3e 42 a9 2c 3e 73 79 e3 bc 7d 63 53 bd
       0.14353856 0.16861442 -0.027767872 -0.05160855
000140 ac 12 24 3e 7d 9f a4 bd 7e c6 db bc e8 56 5c 3e
       0.16022748 -0.080382325 -0.026828047 0.21517527
000150 ab b1 53 3e 3e 6f 5e bd 6b cd 67 bd cc 94 01 3e
       0.20673244 -0.054305308 -0.056592386 0.12654418
000160 22 52 25 3e e2 10 c1 bd 1d bb 12 3d db 07 a4 bd
       0.16144612 -0.09427048 0.035822976 -0.08009311
000170 50 a4 fe 3d 0e b2 01 bd c5 e8 74 bd a7 87 8b bd
       0.12433684 -0.031663947 -0.0597923 -0.06812983
000180 78 c4 95 bd 0b d5 8e 3d 6a dd 3b bd 5d 32 81 bd
       -0.07312864 0.069742285 -0.045865454 -0.06308434
000190 c6 9b 03 3e 55 af 01 bd 78 5e 4d 3e d4 e8 02 be
       0.12852392 -0.03166135 0.20055568 -0.1278413
0001a0 3b 22 90 bd e4 0c b8 3d c1 03 3d 3e 61 cd 3e bd
       -0.07037779 0.08986834 0.18458463 -0.046582583
0001b0 fe b4 51 3e ea 46 1c bd 10 4b 81 bd e4 f9 77 3e
       0.204792 -0.038153566 -0.06313145 0.2421642
0001c0 8b c1 93 bd 05 fb 11 3e 0a 96 2f 3e 72 fb 51 3e
       -0.0721465 0.14255913 0.17147079 0.20506075
0001d0 db 79 2e 3e a1 82 f3 bc cf 96 a6 bd 8a 30 72 bd
       0.17038672 -0.029725375 -0.08134233 -0.05912832
0001e0 31 44 46 3e 74 6d f7 3d 81 82 e3 3d 3a d1 9c 3d
       0.1936195 0.120814234 0.11108876 0.07657094
0001f0 12 39 bc 3c a9 8c 22 3e af ca b1 3c f4 de 8a bd
       0.022976432 0.1587397 0.021703092 -0.06780806

fc2.weight f4 [16, 128]
000000 06 67 b6 bc 9b 02 84 be e4 a6 33 bc f1 ec ce 3d
       -0.022265922 -0.25783238 -0.010965083 0.10103787
000010 5a a6 8f 3d 89 3e e1 3d 9f 13 e6 3b 54 96 ae bc
       0.07014151 0.10998256 0.007021382 -0.021311916
000020 a8 7d 28 3e a1 67 01 bc b0 98 21 bd 32 12 bb bc
       0.16454184 -0.007898242 -0.039452255 -0.022835825
000030 e7 70 40 bd 59 52 04 3d fb 0c 55 3c ef 41 c2 3d
       -0.046982672 0.032305095 0.013003583 0.09485232
000040 2d 3b ef bc 89 ad 84 3d 32 42 ad 3c 48 93 6c bd
       -0.029203022 0.06478412 0.021149728 -0.057757646
000050 0d cf 7f 3d 4c c6 3b bd 30 08 66 3d 86 3a b2 3d
       0.06245332 -0.045843408 0.056160152 0.08702569
000060 2c 28 4e bd 65 a5 f7 3c 86 d2 46 be 44 c1 30 3d
       -0.05033128 0.030230233 -0.19416246 0.043153062
000070 a1 6f 07 bd 63 db b3 bc be 43 96 3d 20 36 bd 3d
       -0.033065442 -0.021955198 0.073371395 0.09238839
000080 d7 22 b4 3d bb 43 4f 3c 32 8a 16 3a d7 49 6d bd
       0.08795708 0.012650426 0.00057426386 -0.057931747
000090 66 4a 6c bd e4 12 c7 3d 6c 7a 89 3c a6 e1 3d bc
       -0.05768814 0.097204 0.016782008 -0.011589443
0000a0 53 42 de bd 10 1c 80 3b 08 cd 7d bd 3f d1 91 3d
       -0.10852494 0.0039095953 -0.06196311 0.07119989
0000b0 f3 7c fb bc 76 dd fb bd 95 32 11 3d 00 7b 0b bd
       -0.030699229 -0.122981 0.03544863 -0.03405285
0000c0 a1 29 b2 bc af 3b 35 3d 40 af 82 bd bd ea 2e bd
       -0.021748366 0.04424637 -0.063810825 -0.042704333
0000d0 91 56 0b be be 18 0d 3c 53 26 48 bd cd 14 4c bc
       -0.13607241 0.008611856 -0.048864674 -0.012456131
0000e0 8b 78 70 3d 2b 53 1c bb f1 be 19 bb 80 0c 49 be
       0.05870871 -0.0023853283 -0.0023459757 -0.19633675
0000f0 34 eb 1f 3d 25 55 5c 3d d4 a2 ad bc 21 7e d6 3d
       0.039042667 0.053792138 -0.021195807 0.10473276
000100 bb b8 0f be f9 5a 78 bc 5a b7 63 bd 53 aa 64 bc
       -0.14035313 -0.015158408 -0.05559478 -0.013956624
000110 b3 5e a7 3d 3e 46 31 be 51 e2 34 bd 30 b0 34 3d
       0.08172359 -0.17311952 -0.044161145 0.044113338
000120 56 60 74 3d c5 c3 18 3d ce dc ee bb b5 ad d2 3b
       0.059662186 0.037296075 -0.0072895056 0.006429399
000130 92 5a 69 3d 71 20 80 bb e6 c9 83 bd ba 84 88 bd
       0.05697114 -0.0039101173 -0.064349934 -0.066659406
000140 ab a5 4d 3c 00 0b 8c 3d 20 c2 60 3e 55 c8 81 3d
       0.012551705 0.068380356 0.21949053 0.063370384
000150 92 e4 92 3d 66 9a fa bb 36 2f 11 3e 02 86 fe 3c
       0.071725026 -0.0076478003 0.14178166 0.03106976
000160 4e 35 78 3d cf a8 84 3d 68 59 04 3d b4 22 66 bd
       0.06059771 0.0647751 0.032311827 -0.05618544
000170 52 dd 42 bd 82 fd d2 3c 4c 87 a2 3d 65 e1 c0 3d
       -0.04757435 0.025755648 0.07935962 0.094179906
000180 74 71 2a 3c 8f 77 d2 bc 12 0b e7 3c e8 61 e4 3b
       0.010403026 -0.025691776 0.02820352 0.006969679
000190 c7 65 85 be 12 27 45 be a5 e9 54 bd 42 45 9e bc
       -0.26054212 -0.19253185 -0.051980633 -0.019320134
0001a0 9c 50 b8 bd a9 6a 1d 3c 38 fe d7 3d 2a 9f 14 3d
       -0.0899975 0.009607949 0.10546535 0.036284603
0001b0 70 25 cb 3d 3b a4 03 3d 44 84 7d bd b2 27 00 3d
       0.0991925 0.032139044 -0.061893716 0.031287856
0001c0 c5 ae fa 3c 6d 23 54 bd d8 92 0a bc af 38 b7 bc
       0.030600915 -0.051791597 -0.008457862 -0.022365896
0001d0 e1 65 e6 3d 1c 1d d6 3d 40 c3 0e 3d 12 f0 a4 3d
       0.112499006 0.10454771 0.034854174 0.08053602
0001e0 01 18 7e 3d 5f 70 27 3e d9 f9 10 3d 7c 2d 2e 3d
       0.06203461 0.1635146 0.035394523 0.042523846
0001f0 45 6a 51 bd 12 1f a4 3c ea be 52 be a3 d6 54 bd
       -0.051126737 0.020034347 -0.2058064 -0.051962506
000200 62 d7 80 3c be b4 3c bc 70 29 11 bd 93 76 40 3e
       0.015727703 -0.011517702 -0.03543991 0.18795232
000210 1d 03 51 3e c9 54 e4 bc 92 8d 08 bc ba 7c 21 3d
       0.20411344 -0.02787246 -0.008334534 0.03942559
000220 dd 75 86 bb ed e8 9b 3c 74 c3 d3 3c f5 a7 4c 3c
       -0.004103406 0.019031966 0.025850035 0.012491216
000230 ca 04 e4 3c 8e ba 14 3d bb cc a9 3d 44 18 c2 bb
       0.027834315 0.036310725 0.08291002 -0.005923303
000240 52 9d 8a 3c 7a 4a cf 3c b8 04 17 3a 21 fe 9f bc
       0.01692072 0.025304068 0.0005760896 -0.019530358
000250 b0 69 15 bd 57 fa 97 ba c4 45 d7 3c 15 e1 d5 3c
       -0.036477745 -0.0011594993 0.026278384 0.026108304
000260 ee 20 b2 bc 0f c8 2a bd c7 54 21 3e 9c bc b0 3a
       -0.021744218 -0.041694697 0.15754996 0.0013483944
000270 da 31 a2 3b c5 46 92 3b e3 cd f9 3b 63 e2 c9 3b
       0.0049497904 0.004464003 0.0076234206 0.0061610206
000280 d6 fb 25 bc 77 f5 37 3d f3 d5 67 bc 30 46 32 bd
       -0.010130843 0.044911828 -0.014150131 -0.043523967
000290 2c 34 bd bb 82 e8 3a ba c7 7a d2 bb cf ab 05 bd
       -0.0057740416 -0.0007129983 -0.0064233276 -0.032634553
0002a0 2b 8b 37 3e 34 c0 ea 3d 69 cb 91 bd 22 e0 58 3e
       0.17924182 0.11462441 -0.071188755 0.2117925
0002b0 9b 44 48 3d 5e 9c ac bb 76 5e 85 bc 16 78 9a 3d
       0.048893552 -0.005267664 -0.016280394 0.07542436
0002c0 71 94 73 3c c1 7f 83 bd 8e 87 01 3d 9d 58 47 bd
       0.014866934 -0.064208515 0.031623416 -0.048668493
0002d0 70 25 cd 3b fc 67 ad bd e4 21 2e bb 3e 11 de bc
       0.0062605664 -0.08467099 -0.0026570493 -0.027107831
0002e0 a6 56 90 b9 66 e0 99 3c 8e c1 50 3b 88 30 79 bb
       -0.00027530378 0.01878376 0.0031853649 -0.0038023312
0002f0 81 fe 26 bd 64 4b 17 3e 4b bf 1f 3d cd 1a 55 bb
       -0.040770058 0.14774853 0.03900079 -0.0032517195
000300 98 0b 88 3b 61 53 59 3b 56 30 35 bc 41 11 89 3c
       0.0041517727 0.003316127 -0.0110588875 0.01673186
000310 17 01 9a bd 0b 4f ad 3b bd d9 83 3d d7 94 c9 3c
       -0.07519739 0.0052889637 0.06438015 0.024607105
000320 d2 b1 05 3c e0 a4 8a 3d 04 94 0e bc 7e 43 b7 3d
       0.008160071 0.06769729 -0.008702282 0.0894842
000330 5d 73 84 3c 63 a6 32 3d a0 95 2d 3c 77 16 07 3d
       0.01616829 0.04361571 0.010594755 0.03298041
000340 58 f5 4a 3d 49 aa 1a 3d 53 13 0e b8 f5 ef a3 3d
       0.049550384 0.037760053 -3.3873435e-05 0.080047525
000350 25 aa 1a 3c 13 65 41 bd ab bb 52 bb 1d b1 bf 3c
       0.00943998 -0.047215533 -0.0032155316 0.023399884
000360 eb bd 36 bc 76 6f fd 3c ec 02 d3 3b 4c f4 3a bd
       -0.011153678 0.030936938 0.0064395573 -0.045643136
000370 49 0b 13 3c 17 06 3f bd 4b 0f 8f 3c bf 2c 3b bb
       0.008974859 -0.046636667 0.017463347 -0.0028560606
000380 3c 7f 55 bc 84 0a 8a bd 9b 58 9e 3d 2e 48 b8 3a
       -0.013030823 -0.06740287 0.07731744 0.0014059597
000390 11 8c b1 ba 47 eb f6 ba 4f 25 e3 3a bf 27 a4 3d
       -0.0013545771 -0.0018838429 0.0017329844 0.080153935
0003a0 8d 42 76 3c 59 12 24 bc f1 e2 39 3d 51 93 6e 3d
       0.015030515 -0.01001414 0.045382444 0.05824596
0003b0 85 84 0b bc 98 a6 c2 3a 13 11 26 bd 86 15 0c 3c
       -0.008515482 0.0014850674 -0.040543627 0.008550053
0003c0 44 cd 98 3d 08 f4 01 bc 0a 44 dd 3a c5 48 18 3d
       0.07461026 -0.007931717 0.0016881239 0.037178773
0003d0 cd 33 1b 3b 66 a0 46 3d ea 6a 4f bd 2b 92 aa 3b
       0.0023681999 0.04849281 -0.05063907 0.005205413
0003e0 79 b1 62 bb 93 bb d4 b9 2a b6 57 3d 51 78 e8 bc
       -0.0034590645 -0.00040575545 0.05266396 -0.028377684
0003f0 3b eb 6e bb 9c de 72 3b 35 13 05 bb ff 65 1a bd
       -0.0036456126 0.0037058955 -0.0020305638 -0.037694927

fc2.bias f4 [16]
000000 0c 58 32 3f 47 3a 08 3b 30 cf 2c 3e 0e f5 97 3c
       0.696656 0.002078669 0.16875911 0.018549468
000010 b0 8c 37 3f c9 e9 9b 3a 15 84 83 3e ab 6b ad 3d
       0.7169905 0.0011895235 0.25686708 0.08467802
000020 0e c9 03 3f 32 a7 00 3d 8a 98 9f 3e a4 ac ba 3c
       0.5147866 0.03140945 0.31171066 0.0227874
000030 e6 9b 46 3f 7d 9f 3d 3b 9b be 94 3e d2 a1 7a 3d
       0.7758163 0.0028934174 0.2905167 0.06118948
