checkpoints/cnn_batchnorm.pt (torch, 636217 bytes, 22 tensors)

conv1.weight f4 [16, 1, 3, 3]
000000 55 a0 d0 3e 0c 4c 85 3d 45 cd 4e bc f1 8f ee 3c
       0.40747324 0.065086454 -0.012622182 0.029121371
000010 ea c2 44 be dc 37 6e bd f1 61 27 3e 96 21 26 be
       -0.19214979 -0.05815874 0.16345955 -0.1622375
000020 81 40 8a be 77 de 78 be cf 8c c3 be ef 73 48 bd
       -0.27002338 -0.24303614 -0.38193366 -0.048938688
000030 fb 61 23 be 7a 7a 06 3e da ea 6e 3c 34 0f a4 3c
       -0.15955345 0.13132659 0.01458236 0.02002678
000040 fe e5 e8 3d 23 6d 64 3e d0 ff 73 be fb 35 aa be
       0.113719925 0.22307257 -0.23828053 -0.3324431
000050 04 30 78 be 89 3c 94 3e 66 84 91 bd 04 d2 b7 3e
       -0.24237067 0.28952435 -0.07105331 0.35902417
000060 e2 bc b0 3c 5e b2 c9 3d 57 2e 92 bd 58 9f 89 3e
       0.021574441 0.09848474 -0.07137745 0.26879382
000070 6d 65 03 3e ab 0a 88 3e dc 78 f2 bd 61 e0 b6 3d
       0.1283166 0.2657064 -0.11839458 0.08929516
000080 87 04 50 3e 00 a6 7e 3e f2 d6 ce be 9e 64 f9 3a
       0.20314227 0.24868011 -0.40398365 0.0019027179
000090 2b 42 97 be 0b cc b7 3c 07 c8 a3 3e e7 86 0e be
       -0.2954267 0.022436162 0.31988546 -0.13918649
0000a0 f8 cb c8 3e ba 9a 49 be 66 d1 4a be 04 88 8d 3e
       0.39218116 -0.1968793 -0.19806442 0.27642834
0000b0 43 ab b7 3d c4 42 c1 3c 32 bc 15 be 11 54 68 be
       0.089682125 0.023591407 -0.14622572 -0.22688319
0000c0 f0 ec 39 be 3d 71 02 bf cc b7 5e be 48 ec 32 3e
       -0.1815679 -0.5095404 -0.217498 0.17472947
0000d0 57 7f 98 be 09 53 8d 3d e1 ec 2c 3e 00 ea 94 3e
       -0.29784653 0.06900603 0.16887237 0.29084778
0000e0 8a 42 96 3e 91 72 43 be dd f2 63 be 94 4d a5 be
       0.2934764 -0.19086672 -0.22260614 -0.3228575
0000f0 ea 28 55 be 6e a4 58 bd 7e 94 fe 3a d6 67 e0 be
       -0.20816389 -0.052891187 0.0019422916 -0.4382922
000100 09 53 23 3e ce ae 27 be 01 8e 04 be 60 2d 74 bd
       0.15949644 -0.16375276 -0.12944795 -0.059613585
000110 34 4a 50 3e cb 86 94 3e ba 39 33 be 45 05 d2 3e
       0.20340806 0.2900909 -0.1750249 0.41019645
000120 63 c1 38 3e 04 d5 27 3e 76 b5 60 3e 50 13 95 be
       0.18042521 0.16389853 0.21944222 -0.29116297
000130 d3 c4 59 3e 4b 5f 48 be bb 88 ed b9 05 2b 20 3e
       0.21266489 -0.19567601 -0.00045306035 0.1564141
000140 b5 72 af bc 6b 5f 0c be de 2a 9c be dc aa 15 bc
       -0.021417001 -0.13708274 -0.30501455 -0.009134974
000150 ec 29 1d 3e 7f 67 e2 3d ea 95 5c be 34 6a af 3e
       0.15348023 0.110548966 -0.21541563 0.34260714
000160 fc 69 55 3e 13 28 8a bd eb 19 07 be b9 57 ae 3d
       0.20841211 -0.06745925 -0.1319348 0.085128255
000170 89 7a e6 bc 5e 89 89 be 51 64 ab 3e 72 81 e4 bd
       -0.028134601 -0.26862615 0.33474973 -0.11157502
000180 31 01 fe bb 68 04 4a 3e e9 18 55 bd 9b 10 4a be
       -0.007751607 0.19728243 -0.05202571 -0.19732897
000190 37 81 53 be 75 2e 40 be 79 5a 95 3e 77 1b 5d 3e
       -0.2065476 -0.18767722 0.29170588 0.21592508
0001a0 08 76 1b 3a 45 4c 2b 3e 31 e8 82 bb de 52 3c 3e
       0.0005930369 0.16728313 -0.0039949645 0.18390986
0001b0 57 d8 a8 3d 7b c8 57 be d7 23 1a 3e 0a 5b 96 be
       0.082443886 -0.21072571 0.15052734 -0.29366332
0001c0 3b b7 21 be c6 f8 8a 3e fd 33 e5 bc 37 c6 c3 bd
       -0.15792553 0.27142924 -0.027978892 -0.09559291
0001d0 49 6c 8d 3e c6 38 6a be 86 71 ac 3e 67 48 ec be
       0.27621678 -0.2287322 0.33680362 -0.4614899
0001e0 f2 c3 49 3e 1c 90 c4 3d 96 ac 46 be 4f b6 b2 3d
       0.19703653 0.09597799 -0.19401774 0.08726179
0001f0 5d 69 9e 3c 17 d5 bb bc e1 c2 b1 be e9 35 1b be
       0.01933735 -0.022928758 -0.34718993 -0.15157284
000200 ce f0 9e be c6 93 05 bd cc e3 6b 3e b4 ef b2 3d
       -0.31043094 -0.03261163 0.23036116 0.08737126
000210 41 83 d9 bd 8a 5f 44 3c e1 bd b4 3e 92 e8 a0 be
       -0.10620738 0.011985669 0.35301116 -0.31427437
000220 37 f5 8f be 87 ef 3a bd 16 06 ba 3e 5e ae 84 3e
       -0.28116772 -0.045638587 0.36332768 0.25914282
000230 f4 aa 97 3d bc 43 13 3e b8 56 04 3d d0 99 8f bb
       0.074056536 0.14381307 0.032309264 -0.0043823496

conv1.bias f4 [16]
000000 17 99 a2 3d 53 33 65 3c c9 6e 9e be 33 b1 86 3e
       0.07939356 0.013989287 -0.30943897 0.26307067
000010 89 51 48 be 37 e9 02 be 22 10 22 be 28 70 f3 bd
       -0.19562353 -0.12784277 -0.15826467 -0.118866265
000020 d6 d5 bb 3d d7 54 10 3e 31 ae 0f 3e cb bd 63 3d
       0.09171645 0.14094864 0.14031292 0.055600923
000030 e9 a7 63 be 7a c7 a8 be 4a 54 a4 3e 58 1f 03 3e
       -0.22232021 -0.3296469 0.32095557 0.12804925

bn1.weight f4 [16]
000000 f8 cd bd 3f 47 fd 5b 3f ad 40 6e 3f 8b 37 51 3f
       1.4828482 0.85933346 0.9306744 0.81725377
000010 de 31 6a 3f 1a f4 62 3f d9 17 95 3f 67 48 56 3f
       0.9148234 0.8865372 1.1647903 0.8370423
000020 ba 76 3c 3f 60 53 6b 3f df d9 7b 3f 7a 54 5b 3f
       0.7361866 0.91924095 0.9837932 0.85675776
000030 a0 23 87 3f c9 e2 85 3f 11 5b 7d 3f 95 91 56 3f
       1.0557747 1.0459834 0.9896708 0.8381589

bn1.bias f4 [16]
000000 2a bd 87 bd ab 33 95 be da 60 46 be c0 24 9c be
       -0.06627877 -0.29140982 -0.19372883 -0.30496788
000010 d6 b8 fa bd 6e a4 a7 be bd 35 95 be 59 21 24 be
       -0.12242286 -0.32742637 -0.29142562 -0.16028346
000020 86 32 ac be 63 6f b7 bd d9 d2 0e be 54 1e 8a be
       -0.33632296 -0.08956792 -0.1394762 -0.26976264
000030 44 b6 9e bd f9 b5 c8 be b0 81 2d be 7b 7f 90 be
       -0.07749608 -0.39201334 -0.16944003 -0.2822226

bn1.running_mean f4 [16]
000000 d0 df 95 3f 01 9d 53 41 98 77 dd 40 c0 ac d5 c1
       1.1708927 13.225831 6.920849 -26.70935
000010 7c 6f 2e c1 79 78 51 42 06 9e 25 41 87 c9 8a c0
       -10.902218 52.36765 10.35108 -4.3371005
000020 a9 e6 83 c1 7c c7 27 c0 b8 c7 86 bd ca b7 27 c1
       -16.487627 -2.6215506 -0.06581062 -10.48237
000030 48 8b 11 3f 18 0e c3 40 d4 41 2a 41 79 bc 16 c1
       0.5685315 6.0954704 10.641071 -9.421014

bn1.running_var f4 [16]
000000 a6 c7 41 42 cc 11 01 43 d2 df 3f 42 85 05 e3 43
       48.44497 129.06952 47.968575 454.04312
000010 7e 64 fa 42 b8 99 d3 44 ac 91 9e 42 53 b8 35 42
       125.19627 1692.8037 79.284515 45.430004
000020 d6 9e 35 43 b7 d9 00 42 38 98 a8 41 ec b4 9b 42
       181.62045 32.212612 21.074326 77.85336
000030 67 14 1b 42 e2 d3 62 42 cc b6 bc 42 cb 9f 7f 42
       38.769924 56.706917 94.357025 63.906048

conv2.weight f4 [32, 16, 3, 3]
000000 41 15 ad bd 48 24 70 3d 0e cc 12 be ae c0 92 be
       -0.084513195 0.05862835 -0.14335653 -0.28662628
000010 3b bd b8 3a c0 61 69 3c 44 79 aa be b4 03 59 3d
       0.0014094481 0.014244497 -0.33295643 0.052982047
000020 82 a9 8d 3c fb 78 15 bd f8 eb 93 bd cc 12 4d be
       0.017292742 -0.03649233 -0.07222742 -0.20026702
000030 3a 9f b3 3d db c3 41 bc ec 71 51 bd dc a5 cb 3d
       0.087706044 -0.011826481 -0.051134035 0.099437445
000040 b4 c0 0c 3d 90 f3 18 be 12 43 ce bd ad 70 14 3d
       0.034363464 -0.14936662 -0.100713864 0.03624027
000050 b1 27 b7 be 2c 29 01 3d 52 f9 8b 3d 54 1d 5e be
       -0.3577247 0.031533405 0.068346635 -0.21690875
000060 9e c6 5e 3e b5 ed 20 3e cc a7 3c be b3 ee 3a 3e
       0.21755454 0.15715678 -0.18423384 0.18255119
000070 15 28 56 3e c5 05 8d 3c ae f5 ca bd f6 ce ec 3d
       0.20913728 0.017214665 -0.09910141 0.11562912
000080 0d 14 6a bd fa 59 98 bd 63 bb 6f 3d 8d 3e 51 be
       -0.05714803 -0.07439037 0.058528315 -0.20434017
000090 65 cb 68 3d 70 9d 8d bc b6 b9 0f 3e 13 d9 1e be
       0.056834597 -0.017286986 0.14035687 -0.15512495
0000a0 0d 12 a9 3d 96 37 e8 bd e1 40 69 be 0d da da bd
       0.08255396 -0.11338727 -0.22778656 -0.10686121
0000b0 96 cb 60 bd 02 5d da bc 62 28 f3 bc ef 8c 15 be
       -0.054881655 -0.026655678 -0.029682342 -0.14604543
0000c0 fd 5b 81 3a f4 fc de 3d bb 99 69 be 40 0e 04 3e
       0.0009869334 0.10888091 -0.2281255 0.12896061
0000d0 a2 be 16 3e 27 22 54 be f6 87 87 3e 5f 94 fd 3d
       0.14721158 -0.20716153 0.26470917 0.12381815
0000e0 af 29 96 be b8 64 58 3e 4b b6 cf 3d 59 08 26 be
       -0.29328677 0.21132171 0.101421915 -0.16214122
0000f0 c7 ca f8 bb 98 0c 18 3d 93 18 5e bd 53 2a 53 bd
       -0.0075925323 0.037121385 -0.054222655 -0.051554035
000100 df 29 18 bd 70 48 45 3c 2c 56 9d bd 6f 1d 75 bd
       -0.037149306 0.012041196 -0.076824516 -0.059842523
000110 31 dc 54 3b d8 b7 bb bd c6 21 b0 3d 2a 55 53 bd
       0.0032479877 -0.09165925 0.08600192 -0.05159489
000120 4b 94 0b 3e 98 63 a2 3d 57 ff 62 3d bc 5c cf bc
       0.13630788 0.07929152 0.055419292 -0.025312774
000130 50 64 51 bd ac 08 00 be cf 15 00 be 80 be 5d be
       -0.051121056 -0.12503308 -0.1250832 -0.21654701
000140 48 06 56 be 11 cb 77 bd 86 31 45 bd 67 a9 7d be
       -0.20900834 -0.060496394 -0.048142932 -0.24771653
000150 e3 d1 38 bb cd 51 0b bd c9 32 b3 bd 17 05 68 3d
       -0.0028201274 -0.03401356 -0.08749921 0.05664548
000160 83 d7 87 3d 27 ab c1 bc 4c 9b 42 bd 04 c1 17 be
       0.066329025 -0.023641182 -0.047511384 -0.14819723
000170 0b 6e 28 3e 0a e9 06 bd 2c 93 0f bd d2 0e 9d 3d
       0.16448228 -0.032937087 -0.035052463 0.076688424
000180 4d 55 0e bd fb 2b 90 bd 85 5e c7 3d 29 18 84 bd
       -0.034749318 -0.070396386 0.09734825 -0.06449921
000190 3d e6 d8 3d 5c 35 e5 bd 23 55 0a 3d 93 73 ff 3d
       0.105907895 -0.11191818 0.0337726 0.12473216
0001a0 e3 2f ca bd eb c2 0b bd 5e 81 65 3d 13 cd a0 bd
       -0.09872415 -0.034121435 0.056031577 -0.07851615
0001b0 4f ce 2c 3d 55 1a a5 3d 63 f8 0b 3e 60 99 85 bd
       0.04218894 0.08061663 0.13668971 -0.065233946
0001c0 d6 4c 9e 3d 54 86 87 3d c9 6a 05 bd fe 39 a1 3d
       0.07729499 0.06617418 -0.03257254 0.07872389
0001d0 0a 8d 2a 3b c9 a3 ef bb 28 be 01 be 8e 87 82 be
       0.0026024007 -0.007313226 -0.12670195 -0.25494045
0001e0 2e 1f 2d 3e 66 a5 49 be 93 b4 16 bd 90 4c c3 3c
       0.16906425 -0.19692001 -0.036793303 0.023840219
0001f0 a0 6c c8 bd f9 2f 8e 3d 85 46 7d bb c7 cb e1 ba
       -0.097863436 0.06942744 -0.003864677 -0.0017226868
000200 9b 5f 03 be 6d 78 8d bb 4d ac ef 3c 1e 37 88 bd
       -0.1282944 -0.0043173344 0.029256964 -0.06651138
000210 2c ea 1a 3e 70 75 6b 3d 3e 1a 00 be 5d e6 12 3c
       0.15128392 0.057485044 -0.1251001 0.008966056
000220 03 e0 ca 3b ab 95 d9 bb a2 80 bb bc 86 18 49 3d
       0.006191255 -0.0066401563 -0.022888485 0.049095653
000230 30 6a e0 bd 44 70 35 bd c4 10 16 3d 33 01 02 3d
       -0.10957754 -0.044296518 0.036637083 0.031739425
000240 46 41 a0 3d 87 50 fa bc 4d 71 00 3e 70 ce fb 3d
       0.0782495 -0.030555977 0.12543221 0.12295234
000250 ab ee eb bd 30 6a 31 be ca 38 05 3e 45 70 ac 3d
       -0.11520132 -0.17325664 0.13009945 0.08419851
000260 99 5d 28 3e 83 b1 45 be 47 5f 16 be fb bd 0a 3d
       0.16441955 -0.19305997 -0.14684783 0.033872586
000270 d2 40 0d bd 47 75 65 3b 59 83 08 3e d5 af 83 be
       -0.034485646 0.003501253 0.13331355 -0.25720087
000280 3f 5b 24 be a3 e8 47 bd e3 b9 97 be 0f 5b a5 bd
       -0.16050433 -0.048805844 -0.29634008 -0.08074009
000290 10 3d 79 3d 00 b9 ca bd 0a b4 da 3d b4 fc 3f 3e
       0.06084925 -0.09898567 0.10678871 0.18748742
0002a0 d2 81 33 be 9a 8e 6e 3b c5 87 f3 3b 6e 3e e2 3d
       -0.17529991 0.0036400915 0.0074319565 0.11047064
0002b0 9e 89 b3 3d c1 7c 94 3d 51 58 64 3d 35 e6 2d 3d
       0.08766483 0.072503574 0.055748288 0.04245587
0002c0 c4 be 3a 3c 90 e7 17 bc b1 9a 6c 3d 61 a9 20 3d
       0.011398021 -0.009271517 0.057764713 0.039224032
0002d0 ea c8 98 3d ff 9b 8d bd 07 bb bd bb ee 1b 18 bc
       0.07460196 -0.069145195 -0.0057901177 -0.009284003
0002e0 50 79 86 bc 6f 96 82 bd c1 76 dc bc 7c ad 00 3d
       -0.016415268 -0.06376349 -0.026912095 0.031415448
0002f0 48 fa b1 bc 73 2d 05 be 1c cb ff 3d ee ba 9d 3d
       -0.021725789 -0.13005619 0.12489912 0.0770167
000300 56 d6 42 be 29 c9 36 3d fc da 78 3d e6 10 1b be
       -0.19027075 0.044625435 0.060755715 -0.15143165
000310 d9 1e c9 3d 2b 07 e1 3d ff cd 4d be 38 19 0a 3d
       0.09820337 0.10987695 -0.20098113 0.033715457
000320 5a 9e 88 3d c8 b9 40 be c5 40 ec ba 7f 47 33 bc
       0.06670828 -0.1882087 -0.0018024674 -0.010942339
000330 a5 13 3e be 46 0e 86 3d 15 66 00 3e c2 a5 ef 3d
       -0.18562181 0.06545691 0.12538941 0.11701538
000340 06 5c ba bd 62 64 c9 3c 85 d7 01 3e 61 b7 34 bd
       -0.09099583 0.024583999 0.1267987 -0.044120196
000350 d0 52 86 3d f4 90 cc bc c3 ef e9 bc c7 db 78 bd
       0.06558764 -0.024971463 -0.02855671 -0.06075647
000360 15 ac 7d 3d 55 2b d5 bc 51 a3 22 3d 95 c7 21 3d
       0.06193169 -0.026021639 0.039706532 0.039496977
000370 46 3c 3a 3d 69 08 ae bd ee 5e 5f bc e5 a0 9a bd
       0.045467637 -0.08497698 -0.013633473 -0.075502194
000380 7d 58 2e 3d 8a 51 6b bd d3 7b 58 be 05 7f 6b 3d
       0.042564858 -0.05745081 -0.21140985 0.057494182
000390 9b bb 4e 3e 88 8b 0f bd c9 87 80 3d fb eb f7 3d
       0.20188753 -0.035045177 0.06275899 0.121055566
0003a0 77 48 1e be c8 c6 d2 bc 8f 4e 29 3e ab 92 fc bc
       -0.1545733 -0.025729552 0.16533874 -0.030831655
0003b0 79 70 45 bd dd 25 a6 3d 1a 1f e5 bc fc 4a 7a bd
       -0.048202965 0.081126906 -0.027968932 -0.061106667
0003c0 f4 18 35 3e 01 af 11 be c2 54 4a be fd 24 c3 bd
       0.176853 -0.14226915 -0.19758895 -0.09528539
0003d0 32 41 6e 3c ee 8f e4 3c 46 c5 32 bd a2 f2 e9 3d
       0.014541911 0.027900662 -0.043645166 0.11423232
0003e0 2e 66 8f 3d 60 90 6d 3d 9a 31 9e 3d 4d 6e da 3d
       0.07001911 0.057999015 0.077243045 0.106655695
0003f0 80 59 42 be 2b 7a 58 be b5 8d a4 be 61 56 3e bd
       -0.18979454 -0.21140353 -0.32139364 -0.046469096

conv2.bias f4 [32]
000000 cc ea 5a 3d 33 f4 56 bd d2 97 cd 3c 8e be b6 3c
       0.053446576 -0.05247898 0.025096808 0.02230766
000010 2f ca bb bc f5 33 47 3d 1a 06 86 bd 24 cd 82 bd
       -0.022923557 0.048633534 -0.065441325 -0.06386784
000020 f2 5c 6a 3d fc 17 d7 bc 81 71 c4 bc 97 4c 58 bd
       0.057217546 -0.026256554 -0.023979904 -0.052807417
000030 e6 d0 44 3d c6 79 8f 3d 5b e7 84 3d 6d 4b 1d 3d
       0.048050784 0.07005648 0.0648944 0.03840201
000040 16 1d 28 bd ee 76 9a 3c fd 59 d7 bc 62 ea e4 bc
       -0.041043364 0.018855538 -0.026288027 -0.027943794
000050 b8 22 8f 3d ab d2 77 bd 3c 61 c6 bc 26 0e b3 3d
       0.06989044 -0.060503643 -0.024216287 0.08742933
000060 d1 e0 70 3d be 55 95 bd f9 f7 64 3d c3 81 9d bd
       0.05880815 -0.07291745 0.055900548 -0.07690766
000070 48 a6 b4 3c d5 6b 0a 3d 5f 68 9d bd b1 a9 44 bd
       0.022051945 0.033794243 -0.07685923 -0.048013393

bn2.weight f4 [32]
000000 1d 7a 4e 3f a5 63 5b 3f 9a 35 6a 3f 68 dc 53 3f
       0.8065508 0.8569892 0.9148804 0.8275819
000010 0c 21 8b 3f eb 37 52 3f 40 a4 8b 3f 4b 2b 4a 3f
       1.086946 0.82116574 1.09095 0.7897231
000020 72 c5 4f 3f 7d 4e 76 3f 8a 04 75 3f c8 e5 65 3f
       0.8116065 0.96213514 0.9571005 0.89803743
000030 18 84 8a 3f c6 64 7c 3f 3a ce 8f 3f 37 a5 82 3f
       1.0821562 0.9859127 1.123481 1.020667
000040 4a a3 81 3f f1 99 6c 3f 3e d0 5b 3f 5c 56 61 3f
       1.0127957 0.92422396 0.8586463 0.880224
000050 66 d1 80 3f 1e 5f 3d 3f 93 b3 51 3f 4f c5 64 3f
       1.0063903 0.7397326 0.81914634 0.8936357
000060 74 c1 7c 3f 39 df 4d 3f 3f 33 71 3f 4c a2 90 3f
       0.98732686 0.80418736 0.9421882 1.1299529
000070 21 75 9e 3f a8 2a 30 3f 85 5d 20 3f aa 06 79 3f
       1.2379495 0.6881509 0.626427 0.97275794

bn2.bias f4 [32]
000000 20 8d fe be ac e5 fc bd 9e 16 c7 be e6 3b b8 be
       -0.49717045 -0.12348494 -0.38884443 -0.359832
000010 a7 7f 05 bf 8e 1b 30 bf e0 24 0f bf b4 02 c7 be
       -0.52147907 -0.68792045 -0.5591564 -0.3886925
000020 04 84 2c bf 05 88 fc be dc fc 0d bf 2c 22 9a be
       -0.6738894 -0.49322525 -0.5546396 -0.30104196
000030 26 f4 7e be c3 f4 f7 be a2 d1 f5 be 3f f2 fc be
       -0.24897823 -0.48428926 -0.480115 -0.4940357
000040 fd 2d 2f bc a0 72 d8 be d5 e5 e0 be d2 05 f2 be
       -0.010692117 -0.42274952 -0.43925348 -0.47270066
000050 e2 60 c6 bd 92 35 c3 be b7 37 5d be 70 53 18 bf
       -0.09686448 -0.38126808 -0.21603285 -0.59502316
000060 08 39 eb be 22 9a 08 bf aa 6c c2 be 0d ab 10 bf
       -0.4594195 -0.5336019 -0.3797353 -0.56511
000070 5d b0 a1 bd 9c cc f4 be f4 31 dc be 47 79 db be
       -0.07894967 -0.47812355 -0.4300686 -0.42865965

bn2.running_mean f4 [32]
000000 42 95 81 bf ec 20 8a bf 29 28 8a bf 27 0f 8c 3f
       -1.0123675 -1.0791297 -1.0793506 1.0942124
000010 d1 8c fb 3f c3 43 12 bf 22 67 07 bf 99 d7 3e bf
       1.9652349 -0.57134646 -0.52891743 -0.74547726
000020 50 86 51 bf f7 8b 2b bf 54 9f f5 3f bd 41 12 3b
       -0.8184557 -0.67010444 1.9189248 0.0022317015
000030 b8 9e f3 bf 1b 6a 42 c0 e9 63 05 3d 16 c6 92 bf
       -1.9032812 -3.0377262 0.032565985 -1.1466701
000040 65 92 c4 be b0 a4 b3 be fc 0f 86 3d e0 4e d4 bf
       -0.3839294 -0.35086584 0.065460175 -1.6586571
000050 88 be 8b 3d 98 af ab bf f8 f7 37 bf ed 72 32 3e
       0.0682345 -1.3412962 -0.71862745 0.17426653
000060 33 5f 0e 3f a1 7b 8b be 73 52 c3 be 7e 51 cc bf
       0.5561401 -0.2724276 -0.3814884 -1.596237
000070 b1 cb bc bf 11 23 07 3f 36 f3 b7 bf a8 7c 25 3d
       -1.4749662 0.5278788 -1.4371097 0.040402085

bn2.running_var f4 [32]
000000 66 bd 9e 3f c9 f7 c3 40 92 a9 62 40 0c 32 02 40
       1.240155 6.123997 3.5415998 2.0343046
000010 dd 53 08 40 74 ee 99 3f 52 ea 11 40 3c bb 28 40
       2.1301186 1.2025895 2.2799268 2.6364279
000020 d8 d7 f4 3f 72 d0 d1 3f 26 9c 1b 40 c5 a9 98 3f
       1.912837 1.6391737 2.4314055 1.192681
000030 23 36 ce 40 96 b4 87 40 60 3a 9f 3f 2a 12 d7 3f
       6.4441085 4.240794 1.243969 1.6802418
000040 19 74 8e 40 98 6f 8f 3f 42 d6 bc 3f 9e 38 82 40
       4.451672 1.1205931 1.4752886 4.0694113
000050 ab a0 56 40 5f 13 80 40 f3 88 3e 40 1e b0 48 3f
       3.3535564 4.0023646 2.9771087 0.78393734
000060 b7 7d d3 3f cb 1c 2e 40 9d e0 52 40 87 dd 6e 40
       1.652274 2.7205074 3.2949593 3.732271
000070 67 4f 12 41 00 47 d4 3f 89 d0 d6 40 46 2e 24 40
       9.144385 1.6584167 6.712956 2.5653243

conv3.weight f4 [64, 32, 3, 3]
000000 f0 af 0f bd 59 7e 76 bd 35 cd 27 be 00 a6 bc bd
       -0.035079896 -0.06017909 -0.16386874 -0.092113495
000010 42 7b 00 be df a8 2c be 4e 82 31 bd 8a f3 86 bd
       -0.12547019 -0.16861294 -0.04333716 -0.0658942
000020 63 08 66 bd 58 97 d3 bd a8 13 c8 bd 08 7b 56 bd
       -0.056160342 -0.10331601 -0.09769374 -0.052363425
000030 6b 27 7a bd f4 ee 0e bd 82 eb ec bc ab 59 a1 bd
       -0.06107275 -0.034895852 -0.028920893 -0.07878431
000040 e6 00 f2 3c 72 4a 44 bc 14 5e f9 3d 7c 05 40 3d
       0.029541444 -0.01198064 0.12176147 0.04688023
000050 d6 27 52 3d 72 d9 50 3e c7 51 db 3d 77 54 d4 3b
       0.05130752 0.20395449 0.10708957 0.0064797956
000060 2a f2 3e 3e a5 f2 3f 3d 86 ca a3 3d 6f 8a 2b 3c
       0.18647066 0.046862263 0.07997613 0.010470017
000070 f0 b6 c3 bc 24 6e 93 3d 1d 2f a9 3d ab d4 88 3d
       -0.023890942 0.07198742 0.08260939 0.06681188
000080 62 65 c0 3d 82 e0 3e 3d 25 e5 85 bc 7c de 17 bd
       0.09394337 0.046600826 -0.016344616 -0.037077412
000090 d7 e7 24 3d 00 4e 30 3d 48 31 26 3e d0 9b 2c 3d
       0.040260162 0.043043137 0.16229737 0.042140782
0000a0 8a 1f 47 3d 04 60 54 3e 7c 1f 45 be 4a d8 4b be
       0.048614062 0.20739752 -0.19250292 -0.19906726
0000b0 ec 8f fb bd 32 91 a1 be fe fd 8e be 17 e9 69 be
       -0.1228331 -0.31556088 -0.27928156 -0.22842823
0000c0 47 16 79 be df 54 48 be b6 34 d3 bd ef db 7f be
       -0.24324904 -0.19563626 -0.10312788 -0.24986242
0000d0 ee de 56 be 54 98 2d be 96 81 85 3c 76 37 0a 3d
       -0.20983478 -0.1695264 0.016297143 0.033744298
0000e0 e8 31 25 bd 8b 30 10 bd 88 58 42 bc 5c af 13 bd
       -0.040330797 -0.035202544 -0.011861928 -0.036055908
0000f0 d1 50 a1 bd df ce 12 be d5 3a 78 be c8 07 d9 bd
       -0.07876743 -0.14336728 -0.24241193 -0.10597187
000100 d1 69 ab bd d8 08 29 be 37 f8 c4 bd c1 48 16 be
       -0.08369792 -0.1650728 -0.09617656 -0.14676191
000110 f8 63 22 be ee 0f 3b bc 77 21 55 bd fb 34 9c bd
       -0.15858448 -0.011417372 -0.052033868 -0.07627293
000120 04 c6 59 3d 3a 2d 9d bd ab 24 5e bd 3e 94 54 3c
       0.053167358 -0.07674642 -0.054234188 0.012974797
000130 61 a3 ae bd 7e 58 0f bc 85 3e b8 3d 15 ab 35 3d
       -0.08527256 -0.0087491255 0.089963 0.04435261
000140 4d 81 82 bc 50 b4 e1 3b df 55 ca 3b af 2e 9a 3d
       -0.015930796 0.00688795 0.0061747874 0.075284354
000150 6e b3 ea 3d d0 02 e2 3d 01 ef e3 3d d7 11 ed bd
       0.11460005 0.11035693 0.11129571 -0.11575668
000160 c3 17 c7 bd 93 be 04 bd bc d0 1c 3e 0f 62 c4 3d
       -0.09721329 -0.03240831 0.15314001 0.09589016
000170 e9 d4 81 3d 66 7e 5d 3e 69 ed 2c 3e d8 ad 4d 3d
       0.063394375 0.21630248 0.1688744 0.05021462
000180 70 3a c4 3d 63 e1 90 3c c0 9e 11 be 5f ff 83 bd
       0.095814586 0.017685598 -0.14220715 -0.064451925
000190 9d 70 4c 3c e0 47 1d bd 42 01 fa bd 9e 55 39 bd
       0.012478021 -0.038398623 -0.12207271 -0.045247667
0001a0 fe 5c 5b bc 9e 5a 63 bd 8f 74 aa bd b7 8f e5 bd
       -0.01338887 -0.05550634 -0.08323013 -0.11209052
0001b0 85 2e 37 be 8a 40 e7 bd 98 53 41 be 39 d9 df bd
       -0.1788884 -0.11291607 -0.18879545 -0.10930104
0001c0 e4 f3 7c bc ad eb 9e bd c1 ae 25 be aa bb 5b bd
       -0.015439007 -0.07759795 -0.16179945 -0.053645767
0001d0 19 50 1d be f4 4f df be 0f 8f 99 be dc 3a 53 be
       -0.15362586 -0.43615687 -0.29991958 -0.20627922
0001e0 63 fa d3 be a6 8e 82 be 17 1a 89 be a9 1c 64 be
       -0.41401967 -0.25499457 -0.26777717 -0.22276558
0001f0 eb f3 1a be 7f fc 28 be ef b9 e6 3d b1 36 34 3d
       -0.1513211 -0.1650257 0.11265933 0.04399747
000200 2a 08 80 bd ab 12 a8 3d 64 0e 92 3d 0a 36 ee bc
       -0.06251557 0.08206686 0.07131651 -0.029078502
000210 ee 1a a4 3d 45 04 ed bc c1 59 27 be 5a e3 71 3d
       0.08012949 -0.0289327 -0.16342832 0.05905471
000220 5b 32 61 3d 0d b5 29 3e da d0 e4 3c 96 69 6e 3d
       0.054979663 0.16572972 0.02793162 0.058206163
000230 39 a1 ad 3d 86 01 7b bd 3a fb 4f be 52 99 26 be
       0.084780164 -0.06128075 -0.20310679 -0.16269425
000240 6e 7e 15 3d 19 01 18 3d 5d d5 de 3d 1b 4f fc 3d
       0.036497526 0.03711042 0.108805396 0.12319776
000250 b5 ea 75 3d 0f c6 31 3e c2 e2 82 bd e4 62 1d be
       0.060038287 0.1736071 -0.06390907 -0.15369755
000260 2b cc 05 3d bb 1a 20 ba 33 d4 f8 3d db c3 c5 3d
       0.032665413 -0.0006107499 0.12149849 0.09656497
000270 e5 2a 80 39 7b c1 b8 3d f1 9a 9f 3d 7c 42 41 bb
       0.0002444602 0.090212785 0.077932246 -0.002948909
000280 83 46 bf bc 9c 09 67 3d 27 c5 06 bb ca 03 4f 3d
       -0.023349052 0.05640565 -0.002056429 0.050540723
000290 f0 ff e3 3d 27 18 1e bd 0d cd 1b bd 4b 5a d0 3c
       0.111328006 -0.038597252 -0.03803735 0.02543368
0002a0 33 23 84 3c d4 11 a0 bd b8 f8 06 3d ae e7 38 be
       0.016130066 -0.078159004 0.03295204 -0.18057129
0002b0 e7 1a 33 be 6b ea fd bd cd 9d 0b be ee fc 72 be
       -0.17490731 -0.12398227 -0.13634415 -0.23729298
0002c0 29 de 12 be 33 1c e9 bd b3 d2 21 be 8d 55 23 be
       -0.1434256 -0.11382332 -0.15803032 -0.15950604
0002d0 98 29 f2 bd ef 6b ff 3a 89 f5 0f 3e 7f 8d 0a be
       -0.1182434 0.0019487123 0.14058508 -0.13530539
0002e0 dc 76 03 3d 4a 71 cd 3d 8c 00 45 bd cb ec 79 3d
       0.032095775 0.10031374 -0.048096225 0.06101684
0002f0 9c d6 59 3e 18 d7 12 3d 9d 16 9b 3c 3b 68 5d 3d
       0.21273273 0.03584966 0.018931681 0.05405448
000300 b8 b1 c2 3d 5b 74 d2 3d c3 3c 28 3e 62 be 7d 3c
       0.095065534 0.10276099 0.16429429 0.015487285
000310 b4 e8 11 3d 84 20 93 3d 2c eb 03 bd e5 24 55 bc
       0.035622314 0.07183936 -0.0322067 -0.013009285
000320 cd db 1e bc 3e 99 61 3d 33 34 d4 bb de f4 d7 3d
       -0.009695959 0.055077784 -0.006475949 0.105447516
000330 fe 23 05 bd c0 ac 55 3c e4 69 c4 bc c9 48 10 3e
       -0.032505028 0.013041675 -0.023976274 0.14090265
000340 26 52 e7 3d 00 4e 98 3d cc ab 0b 3e e0 cc 06 3e
       0.112949654 0.07436752 0.13639754 0.13164091
000350 7b 40 e6 3d b5 4d 34 3e 71 cc 8b 3c 74 b8 be 3d
       0.112427674 0.17607768 0.017065259 0.093125254
000360 53 d3 6e 3d df 92 e9 3d c5 6c d8 3d cc 05 c9 3d
       0.058307003 0.114049666 0.10567621 0.09815559
000370 8a 40 32 3d 2e 78 d9 3d 1b cc cc 3b 7d 8a 30 bb
       0.04351858 0.106186256 0.006249917 -0.0026938014
000380 85 df c9 3d cb cd e7 bc 9e 86 cb bd a9 63 2b bb
       0.09857086 -0.028296372 -0.099377856 -0.0026151931
000390 9f ff 60 bb 94 f2 03 bd 02 94 dd 3d ff e1 2f be
       -0.003433205 -0.032213762 0.10819246 -0.17176054
0003a0 96 b1 26 be 5f 4f 19 bd fc 61 db 3a 05 65 25 3d
       -0.16278681 -0.03742921 0.0016737576 0.040379543
0003b0 2c fb e7 bc d5 f9 98 3d 91 ef 37 bd 07 ff 13 3d
       -0.02831801 0.07469527 -0.044906203 0.036131885
0003c0 75 3e 96 3d da 48 39 3c e9 ea 5b 3d f9 4b 3e be
       0.073361315 0.011308873 0.053690825 -0.18583669
0003d0 48 a1 40 be 63 11 80 be dd 26 6e be 61 6c 37 be
       -0.18811524 -0.25013265 -0.23257013 -0.17912437
0003e0 1d 7f 2e be e9 39 61 be ea c8 32 be 3f 6a 4f be
       -0.17040677 -0.21994747 -0.17459455 -0.20255373
0003f0 05 82 3a bb db 1b 46 bb 26 cf 07 3e b2 d1 93 bb
       -0.0028458845 -0.0030229005 0.13262615 -0.0045110816

conv3.bias f4 [64]
000000 b5 7b 14 3d 4e 56 05 3d 46 a8 a9 3b 3c b3 a0 bc
       0.03625079 0.03255301 0.0051775305 -0.019616716
000010 f2 f7 59 bd fb aa 43 bc c2 2d c4 3c c4 54 af 3c
       -0.053214975 -0.01194262 0.0239476 0.021402724
000020 4b 64 f9 3c f9 1d 6f bd ed 38 8d 3b 94 0c 12 bd
       0.030443331 -0.058378194 0.0043097646 -0.035656527
000030 6c 69 86 bb 7a 19 0d 3c ca 7e 47 bd 89 d8 09 3d
       -0.0041019227 0.008612031 -0.0487049 0.03365377
000040 a5 bd 06 3d c7 26 b0 3c 03 c4 58 bd fc 56 f1 3c
       0.032895703 0.021502865 -0.052921306 0.029460423
000050 42 be 41 bd cc 45 48 3d 2c 74 73 bd 4f f2 5a 3d
       -0.047300585 0.04889469 -0.059436962 0.05345374
000060 ff 82 4c bc 39 14 2b bd 90 31 a8 bb 65 82 87 3c
       -0.012482404 -0.041767333 -0.0051328614 0.01654167
000070 69 04 a6 3c 3b 77 e9 3c 7b 08 61 3d 6a 70 f7 3c
       0.020265775 0.028499236 0.05493973 0.03020497
000080 4a 4f 57 bc b4 94 14 3c df fc 54 bd 89 e9 6d bd
       -0.013141463 0.009068657 -0.05199897 -0.058084045
000090 5c ba 86 bc e0 d0 58 3d d9 50 73 3c 40 00 4a 3d
       -0.016446285 0.052933574 0.014850819 0.049316645
0000a0 a6 49 29 3d 29 32 9c bc 45 7a 4c bd 69 a0 67 3c
       0.041330002 -0.019066887 -0.049921293 0.014137366
0000b0 00 b3 14 3d eb 8a df bc 55 35 14 bd 11 2d d5 bc
       0.03630352 -0.027287921 -0.036183674 -0.026022466
0000c0 3c 49 df bc f8 7e e1 3c 3a ad 1f bd 16 2f 61 3c
       -0.0272566 0.027526364 -0.03898356 0.013744136
0000d0 98 cf 75 bd a6 6d ff 3b 8f bd 27 3d 5a 66 a8 bc
       -0.06001243 0.0077950535 0.04095226 -0.020556618
0000e0 2e a7 1a 3d 33 c0 f3 3c 32 c4 2a 3d 34 63 02 bd
       0.03775709 0.029754734 0.041691013 -0.03183289
0000f0 1f 72 70 3d 62 b9 ed bc 49 81 db bc 66 cb 04 bd
       0.058702584 -0.029019061 -0.026795046 -0.03242054

bn3.weight f4 [64]
000000 5a f2 50 3f d2 74 42 3f 97 42 3a 3f cc 63 62 3f
       0.816198 0.75959504 0.7275786 0.8843353
000010 42 5c 32 3f db 29 2b 3f ca 3d 4b 3f 45 71 4e 3f
       0.69672024 0.6686074 0.7939116 0.80641586
000020 82 7b 60 3f ca e7 44 3f b5 a3 61 3f f6 d2 42 3f
       0.8768846 0.7691618 0.8814042 0.7610315
000030 e1 2f 5b 3f ce 8b 52 3f b3 a2 6d 3f 74 97 46 3f
       0.8561993 0.82244575 0.92826384 0.7757485
000040 c4 6a 41 3f 37 7d 38 3f c8 d1 40 3f ec 4d 54 3f
       0.75553536 0.7206606 0.753201 0.829314
000050 e3 7c 4d 3f bb 22 65 3f 28 35 31 3f 91 59 5b 3f
       0.80268687 0.8950612 0.69221735 0.8568354
000060 24 5a 3f 3f f7 80 45 3f 42 a1 3d 3f ca cb 47 3f
       0.7474692 0.7714991 0.74074185 0.7804533
000070 42 fa 42 3f 4d 0e 79 3f 80 9e 3c 3f c8 81 5a 3f
       0.76163113 0.97287446 0.7367935 0.8535428
000080 4a 07 39 3f ea bf 48 3f 7c 3b 58 3f 4d 01 73 3f
       0.7227675 0.7841784 0.84465766 0.9492386
000090 b6 2f 30 3f 5c 37 50 3f ca 41 49 3f 4c 63 6a 3f
       0.688228 0.8133447 0.7861601 0.91557765
0000a0 f3 d2 55 3f 87 2e 47 3f 85 a5 43 3f 35 67 46 3f
       0.8352501 0.7780537 0.7642444 0.7750123
0000b0 58 e6 4e 3f a1 2a 47 3f 93 b8 51 3f dd a2 53 3f
       0.80820227 0.7779942 0.8192226 0.82670385
0000c0 49 71 5d 3f 5d 87 3c 3f 0c a3 49 3f e0 2a 3a 3f
       0.86500984 0.7364405 0.78764415 0.7272167
0000d0 28 d4 5b 3f 40 1e 32 3f b3 8f 44 3f ed de 58 3f
       0.858706 0.6957741 0.7678177 0.8471516
0000e0 28 5b 55 3f 6f 1c 46 3f cd b3 54 3f a4 90 46 3f
       0.8334222 0.77387136 0.83086854 0.77564454
0000f0 4c 26 6d 3f b7 72 4d 3f df 57 5b 3f 58 2f 38 3f
       0.9263656 0.80253166 0.85680956 0.7194724

bn3.bias f4 [64]
000000 69 c5 9d be f1 74 64 be 7e 21 7e be d4 bd 12 be
       -0.30814674 -0.22310235 -0.24817464 -0.14330226
000010 03 b3 77 be a4 92 9b be ca 1e 41 be 30 b9 61 be
       -0.24189381 -0.30385315 -0.18859401 -0.220433
000020 69 16 5a be 28 93 1a be d6 b4 89 be 56 ec 86 be
       -0.21297611 -0.15095198 -0.2689578 -0.26352185
000030 d0 66 13 be 44 2d a1 be 15 0e 6b be 3d 04 6c be
       -0.14394689 -0.31479847 -0.2295459 -0.23048492
000040 71 94 8b be b7 0c 73 be dc a0 91 be da e9 07 be
       -0.2726169 -0.23735319 -0.28443038 -0.13272801
000050 2b af bc bd ae d8 32 be e8 62 3d be 5c 49 48 be
       -0.09213098 -0.17465469 -0.18494761 -0.19559234
000060 54 21 85 be 0d 9d 76 be 34 29 7a be 02 9a 9f be
       -0.2600199 -0.24083348 -0.2442978 -0.31172186
000070 70 22 49 be 9d dc 28 be 1b b9 9c be ed 10 ba be
       -0.19642043 -0.16490407 -0.30609974 -0.36341038
000080 a0 96 8e be 7e c5 a7 be fe 0f 6b be 84 3e 86 be
       -0.27849293 -0.32767862 -0.2295532 -0.2621957
000090 4e 86 ae be 5c 33 66 be 66 c5 95 be b4 78 67 be
       -0.3408684 -0.2248053 -0.29252166 -0.22604638
0000a0 6d b3 55 be 25 e2 86 be ff d5 13 be 5d 98 ab be
       -0.20869227 -0.2634441 -0.14437102 -0.3351468
0000b0 ee e5 99 be 5b 90 8a be b7 6d 90 be a8 df 2b be
       -0.30058235 -0.2706326 -0.28208706 -0.16784537
0000c0 3b ea 74 be 97 f3 29 be 48 0b b2 be fa fa 42 be
       -0.23917477 -0.16596828 -0.34774232 -0.19041052
0000d0 d2 28 22 be d9 04 1a be fc 44 91 be b2 1f 42 be
       -0.15835884 -0.15040912 -0.28372943 -0.18957403
0000e0 fa 85 07 be 2a 7a 85 be 0a 1a 42 be 4c 5e 5a be
       -0.13234702 -0.26069766 -0.18955246 -0.21325034
0000f0 99 2d 67 be 94 e1 79 be ba 40 7c be e5 e6 62 be
       -0.22575988 -0.24402457 -0.24634066 -0.22158392

bn3.running_mean f4 [64]
000000 eb b4 d5 be 00 fa e1 be e6 3a 99 be b9 95 ac 3f
       -0.41739592 -0.44136047 -0.29927748 1.3483192
000010 b4 17 ea 3e b7 2a d1 3f ce 4a ba 3f c6 8a c3 bf
       0.4572121 1.634116 1.4554079 -1.5276725
000020 d4 d4 d8 bd 0e 7e e9 3f d1 0d e0 bd 8d 28 c8 3f
       -0.10587469 1.8241594 -0.10940135 1.5637375
000030 ce 23 96 3d 74 cf 31 bf 7b 6d c1 bf bd 38 b5 3f
       0.07331048 -0.69457173 -1.5111536 1.415794
000040 3d 23 58 3f 81 f8 fd 3f b1 fa 13 c0 97 71 60 3f
       0.8442877 1.9841462 -2.312176 0.87673324
000050 ba 6f 6e 3e 37 fe 09 bf a2 f6 08 c0 54 b1 ff bf
       0.23284808 -0.53903526 -2.1400533 -1.9975991
000060 44 aa 39 bd 67 60 e6 3e 5c e1 e4 bf 16 72 40 c0
       -0.045328394 0.44995424 -1.7881274 -3.0069633
000070 d9 75 50 3f 1b 56 11 3f 76 df e5 3f c7 fc 89 bd
       0.8142982 0.5677201 1.795882 -0.067376666
000080 15 cc ce bf cd b4 41 c0 9a 01 dc 3e 81 b5 79 bf
       -1.6156031 -3.0266602 0.42969972 -0.9754258
000090 ab 6b 8c 3e 2a 65 65 bf 37 9b 1d bf 8d 84 01 c0
       0.27425894 -0.8960749 -0.61564964 -2.0237153
0000a0 5d 6f db 3e f4 62 3f 3f 6d 48 cc 3e 92 51 dd 3f
       0.428584 0.74760365 0.39899006 1.7290518
0000b0 eb d7 bb be c2 a9 d1 bd 5f 63 05 40 d0 8b 4c 3f
       -0.3668817 -0.10237457 2.0841901 0.79900837
0000c0 37 8f df 3e c9 91 05 c0 15 e5 ae bf 78 30 23 c0
       0.43663952 -2.087023 -1.366366 -2.5498333
0000d0 67 ae 50 3e eb 80 2f 3f 42 76 c7 bf 15 8e a3 be
       0.20379029 0.6855609 -1.5582964 -0.31944337
0000e0 95 e6 c7 be 90 05 a2 be cd ce 16 bf d1 a5 68 bf
       -0.39043108 -0.3164487 -0.589093 -0.90878016
0000f0 45 34 80 3e 51 5a 5d be 44 b5 35 c0 0b c3 4a c0
       0.25039878 -0.21616484 -2.8391886 -3.1681545

bn3.running_var f4 [64]
000000 17 25 82 40 c7 93 d6 40 46 52 5f 40 4a f4 96 40
       4.0670276 6.705539 3.4893966 4.7173204
000010 c4 31 31 40 da e9 b2 40 b5 d9 67 40 a0 02 2e 40
       2.7686625 5.5910463 3.6226628 2.7189102
000020 02 30 44 40 ab 99 44 41 57 3c 9e 40 72 0d 89 40
       3.0654302 12.287517 4.9448657 4.2828913
000030 20 69 74 40 79 d7 70 40 dc e1 82 40 0a db 55 40
       3.8189163 3.7631514 4.0900707 3.341494
000040 21 fe 6d 40 e2 be b5 40 3e f1 ae 40 d5 1b 56 40
       3.7186358 5.679551 5.4669485 3.3454487
000050 16 36 2a 40 82 9c 76 40 d3 93 bc 40 55 b1 79 40
       2.6595511 3.8533025 5.893045 3.9014485
000060 b2 9e fd 40 97 8d b4 40 1b f4 b2 40 c7 eb da 40
       7.925622 5.642284 5.592298 6.8412814
000070 c7 44 1a 40 56 8c e0 3f 3a 13 ef 40 f4 38 de 3f
       2.4104478 1.7542827 7.471097 1.7361131
000080 a4 30 0f 41 73 fe 3c 40 cf 48 7c 40 89 be f9 40
       8.949375 2.9530303 3.941944 7.8045087
000090 d8 e3 60 40 48 ef 3c 40 ab 9e 31 40 24 61 91 40
       3.5139065 2.9521046 2.7753093 4.543108
0000a0 d3 57 0a 41 3e f9 1a 40 19 11 a0 40 b5 02 84 40
       8.646441 2.4214625 5.002087 4.1253304
0000b0 a9 82 69 40 87 7a e6 3f d7 51 22 40 54 5a 89 40
       3.6485999 1.8006142 2.536245 4.2922764
0000c0 57 e6 62 40 2b cc 26 41 bf 75 8c 40 d2 b6 a2 40
       3.5453088 10.424846 4.3893733 5.084817
0000d0 b1 b9 94 40 17 34 98 40 1a e2 8f 40 a2 94 49 40
       4.6476674 4.7563586 4.4963503 3.1496968
0000e0 64 3b 02 40 01 2a 6c 40 a9 cf 54 40 37 3b 06 41
       2.034875 3.6900637 3.3251746 8.389457
0000f0 0d 22 08 40 d2 d8 46 40 cc 69 9b 40 37 56 e7 40
       2.1270783 3.1069837 4.8566647 7.2292743

fc1.weight f4 [128, 1024]
000000 12 8e fa bc d8 47 c9 bb a2 a8 90 3c 86 d3 3d bc
       -0.030585323 -0.0061425976 0.017658535 -0.011586076
000010 a0 e3 a6 ba 12 3c 9b bc 42 6f e1 3c fe 67 b0 bc
       -0.0012732632 -0.018949542 0.027518872 -0.021533962
000020 14 17 6e bc fe 3d e6 3c 64 d9 cc bc 47 05 50 bb
       -0.014531869 0.028105732 -0.025006004 -0.0031741427
000030 4c f6 0b 3c 80 20 9d 3a 00 8b 65 ba a1 8d 71 bb
       0.0085426085 0.0011987835 -0.00087563694 -0.00368581
000040 46 6e d6 bc c0 68 ea bb ce eb cc bc 2a 6d c0 bc
       -0.02617563 -0.0071536005 -0.025014784 -0.023489553
000050 5f ae 76 3b 6a b5 bd bc 8f b8 cf bb 28 e5 79 3c
       0.0037640554 -0.023157794 -0.00633914 0.015252389
000060 29 b8 17 bb 35 c6 94 bc b1 27 0e bd 88 10 1e 3c
       -0.002315054 -0.018160919 -0.03470582 0.009647496
000070 b1 29 79 3c b1 bf f5 bc d9 ba 8d bc 62 3e b8 3c
       0.015207694 -0.029998632 -0.01730101 0.022490684
000080 bc 78 fc bc f5 da b7 bb a6 7b 72 bb 64 b2 f0 bc
       -0.03081929 -0.0056108185 -0.003699997 -0.029381938
000090 3c ce 49 bc 60 50 95 bc 9a b7 94 3c 9e cd 0f bd
       -0.0123172365 -0.018226802 0.018153954 -0.0351082
0000a0 a8 c5 cc bc 6a 27 ea bc fa 6e b7 bc ea 17 bd bc
       -0.024996594 -0.028583247 -0.022391785 -0.023082692
0000b0 68 97 71 3c e2 84 a0 3c 46 16 89 3c 9f 50 64 bc
       0.014745571 0.019594613 0.016734254 -0.013935237
0000c0 e0 9e c1 3a 3d a4 df b9 f9 ec a1 bc 58 d8 a5 bb
       0.001477208 -0.00042656242 -0.019766318 -0.0050611906
0000d0 86 40 06 3c c0 04 06 3c 64 2b 16 bd 58 dd 6c 3c
       0.0081940945 0.008179843 -0.036662474 0.014457069
0000e0 2a b2 03 bc 72 a2 b0 3c ad 02 b0 3c 80 5b 84 3b
       -0.008038083 0.021561835 0.02148565 0.004039228
0000f0 64 9e 2d 3c 20 13 27 3c a2 54 98 bb f8 93 c0 bb
       0.010596845 0.010197431 -0.004648761 -0.0058770142
000100 69 2d 6b bc 89 45 fd bc ce 59 c5 3c 21 00 95 3c
       -0.014354088 -0.030916946 0.024090674 0.018188538
000110 80 36 8d 3b fc 31 e1 3c c6 01 a3 3c 40 90 f5 3c
       0.0043094754 0.027489655 0.019898307 0.02997601
000120 c9 c6 e7 3a 12 4f cf 3c 82 29 c8 bc 8c 8d d7 3c
       0.0017683144 0.025306258 -0.024433855 0.026312612
000130 4d c8 c5 bc 48 61 2e 3c 3c 48 be bc ea c6 ec bc
       -0.024143362 0.010643311 -0.023227803 -0.028903443
000140 b2 0b be 3c 9b d9 d0 3c e5 48 c7 bc bf 93 09 bd
       0.023198936 0.025494387 -0.024326751 -0.033588167
000150 d8 fd 89 ba 0c 85 b8 bc c5 79 94 3c 3e b5 a8 3c
       -0.0010527922 -0.02252438 0.01812447 0.020594236
000160 48 90 ac bc b6 17 88 bc 58 1e 26 3c 5c 10 f1 bc
       -0.021064892 -0.016612869 0.01013907 -0.029426746
000170 28 83 47 bc 1c ab c5 bb be 2a 8b 3c 34 86 d0 3c
       -0.012177266 -0.0060323607 0.016988155 0.025454618
000180 5c 77 4c 3b 37 0e 0d 3c a5 9d 4d bc dc 92 5f 3c
       0.0031199073 0.008609346 -0.012549792 0.013645854
000190 f2 07 b4 bc a0 fd ab bc a0 9d 0c 3c 66 f0 16 3c
       -0.021976445 -0.020994961 0.008582503 0.009212589
0001a0 40 79 de 3c 32 f6 e1 3c 94 d5 50 bc fe 9a 0b bd
       0.027157426 0.027583215 -0.0127462335 -0.03408336
0001b0 14 e1 28 3c 8c 55 e6 bc e0 f2 40 bb 70 c4 d0 bc
       0.010307569 -0.028116964 -0.002944164 -0.025484294
0001c0 8b 40 f5 bc 94 9a 03 3c 76 00 c9 3c a3 2e 0c 3c
       -0.029938003 0.00803246 0.024536353 0.008556041
0001d0 ed 78 6a 3c eb b8 ad bc 77 74 c4 3c 24 cd f8 3c
       0.0143110575 -0.02120634 0.023981316 0.030371256
0001e0 81 d1 fa bc 04 5f a0 ba 7a 83 c4 3c a0 7e e1 bc
       -0.030617477 -0.0012235348 0.023988474 -0.0275262
0001f0 64 ad b1 3b fb d9 46 3c f9 68 49 bc 28 18 32 3c
       0.005422281 0.0121369315 -0.012293094 0.010870017
000200 a0 24 2f bc 46 92 cd 3c 62 9e 87 3c e0 e3 71 bb
       -0.010689884 0.025094163 0.016555015 -0.0036909506
000210 a4 5f 5f 3c 00 d1 f6 ba 0a 43 a3 3c ac 24 8d bc
       0.013633642 -0.0018830597 0.019929428 -0.0172294
000220 9c a5 52 3c a0 fa 57 3c 9a da 93 bc 88 fd 87 3b
       0.012856867 0.013182312 -0.018048573 0.0041500963
000230 62 40 dc bc 64 5e 08 bc 60 b2 fa 3b f2 b3 8a 3c
       -0.026886169 -0.008323286 0.0076506585 0.016931508
000240 b0 94 05 3b c0 af 0a 3c fc 86 bb 3c 58 2b 71 3c
       0.0020382814 0.008464754 0.022891514 0.014719807
000250 78 1f f2 bb 46 a4 8a 3c 12 78 ba bc 0f 4e d9 b8
       -0.0073890053 0.016924035 -0.022762332 -0.00010361906
000260 74 87 09 bc 50 f2 b6 3b 80 e6 2e bb 6e c1 82 3c
       -0.008394111 0.005583085 -0.0026687682 0.015961375
000270 da dc f3 bc 60 68 67 bc d0 44 72 3b c0 d1 0e 3b
       -0.029768396 -0.014124006 0.0036967285 0.0021792501
000280 1a 4c d5 bc 70 13 2a bb d8 40 8f 3c 90 01 80 3c
       -0.026037265 -0.0025951527 0.017486975 0.015625745
000290 c6 88 cc 3c 5e bb b8 3c fe 62 85 3c 48 85 a9 3b
       0.024967562 0.022550281 0.016282555 0.005173359
0002a0 6d 34 82 3c 72 e8 00 bd 64 c6 51 3c 1b e2 62 3c
       0.01589414 -0.031471677 0.012803648 0.013847853
0002b0 d7 29 80 3c d0 22 95 b9 25 09 10 bd 61 d9 a6 3b
       0.01564495 -0.00028445432 -0.03516497 0.0050918316
0002c0 90 cc de 3c 80 d3 e1 bc 48 86 ea 3b 20 f4 f5 bc
       0.027197152 -0.027566671 0.007157121 -0.030023634
0002d0 00 8b 6f bc 3f 96 15 bd 64 80 02 bc 33 72 fa ba
       -0.0146205425 -0.03652024 -0.007965181 -0.001910752
0002e0 a0 93 7c bb 6a 18 b2 3a fb 4a ea bc df ef 85 3b
       -0.003854014 0.0013587598 -0.028600207 0.0040874328
0002f0 c4 c4 48 bc 13 43 17 3c c7 b4 d2 bc fb 12 06 bd
       -0.012253944 0.0092323 -0.025720967 -0.032732945
000300 b9 e5 07 bb b0 a1 6f 3b 98 f5 5a bc d4 3d a2 bc
       -0.002073629 0.003656488 -0.013364218 -0.019804873
000310 74 19 c1 3c 60 c4 c3 bb c0 49 ff bc 70 e6 d4 bc
       0.023571707 -0.0059743375 -0.031163096 -0.025988787
000320 90 21 d0 3c da 22 e3 3c f0 cb ef bb 00 60 75 bb
       0.025406629 0.02772658 -0.0073180124 -0.0037441254
000330 74 f8 19 3c 10 ca f9 3c 60 31 77 3b c2 57 ac 3c
       0.009397615 0.030491859 0.0037718639 0.02103794
000340 20 8c b7 bc a3 f6 bd 3c c7 68 ca bc a0 4c 4a 3b
       -0.022405684 0.023188895 -0.024708165 0.0030868426
000350 f8 61 49 bb 2e 37 d2 bc 42 02 ee bc b0 57 9b 3c
       -0.003072856 -0.025661077 -0.029053811 0.018962711
000360 5c a7 5c 3c 69 bc 49 3b 9b a0 ee bb c0 df ff ba
       0.013467636 0.0030782467 -0.0072823293 -0.0019521639
000370 9c a2 50 bc f0 49 e5 3b 96 2f 85 bc 30 80 1a 3c
       -0.012734082 0.0069973394 -0.016258042 0.009429976
000380 5c 17 14 bd 6d 65 d2 3b 0e b1 3c ba c8 00 fb 3c
       -0.03615509 0.0064207823 -0.0007198014 0.030640021
000390 a2 bd a9 bc 90 c8 d3 bc 76 10 94 bc 94 6f 0a bc
       -0.020720307 -0.025852472 -0.018074255 -0.008449454
0003a0 4c 6e 8e bc 40 e7 9f bc d0 40 ae bc 6c 7b cb bc
       -0.017386578 -0.019519448 -0.02127114 -0.024839126
0003b0 12 18 97 bc 3a 52 b0 bc 4e 47 99 bc 24 be 8f bc
       -0.018444095 -0.021523584 -0.018710759 -0.01754672
0003c0 40 18 47 bc 0a 82 c4 bc 80 1a ab 3c d0 e3 22 bc
       -0.012151778 -0.023987789 0.02088666 -0.00994201
0003d0 ec da 12 bc 1a 14 96 3c 90 2d b6 bb 68 33 10 bc
       -0.008963328 0.018320132 -0.0055596307 -0.008801319
0003e0 49 3c f0 3b b8 d6 a9 bc 78 0f 4f bc aa 73 c5 bc
       0.0073314053 -0.020732269 -0.012637965 -0.024103004
0003f0 2f 43 0a bd 8a 74 b4 bc 54 17 36 bc 04 ca ac 3c
       -0.033755478 -0.022028226 -0.01111396 0.021092422

fc1.bias f4 [128]
000000 48 0a 96 3b cd e6 81 3e e6 aa f8 bd 54 bc 08 bb
       0.0045788623 0.253714 -0.12141971 -0.0020864205
000010 c9 74 33 3e 18 35 ae 3d 5e 2c 57 bd 80 56 11 bd
       0.17525019 0.085062206 -0.052532546 -0.035482883
000020 78 69 fd bb 94 2e 20 bc b0 ce c6 bb 29 1f 44 bd
       -0.00773352 -0.00977673 -0.0060671195 -0.04788128
000030 54 a3 37 bd 31 73 ce 3d 56 3b 0d bd e3 d5 23 bd
       -0.044833496 0.10080565 -0.034480415 -0.0399989
000040 87 ad 05 bd 06 2f 0b 3e 17 de 08 bd 98 1a db bc
       -0.03263619 0.13592157 -0.033414926 -0.02674608
000050 ed 5a da 3d 74 79 4b 3c b8 73 f5 3c 43 a1 b5 bc
       0.10661874 0.012419093 0.029962406 -0.022171622
000060 2d 24 87 3c 28 61 ce 3a 19 90 aa bc ad d0 91 bc
       0.016496742 0.0015745508 -0.020820664 -0.0177997
000070 e2 14 d8 bc 33 6c 5a 3d c3 86 19 bd 36 1a f9 bd
       -0.026377145 0.053325843 -0.037482034 -0.121632025
000080 3e 2b b7 3d c0 9e 7d bd 86 2a d5 3d 91 a2 2a bd
       0.08943795 -0.061918974 0.10408501 -0.04165894
000090 30 22 5f 3e e4 b5 7d 3e 2a 3b 53 bd 60 58 b9 3c
       0.21790385 0.24776417 -0.051570095 0.022625148
0000a0 fe b1 11 bd 2a ad f8 bc 9e 2d 61 3e 0d 33 6c bc
       -0.035570137 -0.030356009 0.21990058 -0.014416468
0000b0 e6 a9 50 bc 91 46 b8 3c 76 12 11 bd 92 cb 43 bd
       -0.012735819 0.022494586 -0.035417996 -0.04780156
0000c0 c1 51 98 bd 14 23 04 bc 73 28 78 3d b3 36 21 3d
       -0.07437468 -0.008065004 0.06058545 0.039358806
0000d0 cf c8 0e bd 30 0c 79 bd ed 6e 9d 3c 48 79 81 bd
       -0.034859475 -0.06080264 0.019217933 -0.06321961
0000e0 b6 74 1d bc 95 84 0a bd 4a a9 85 bb 6e 1f e3 bb
       -0.009610346 -0.033817846 -0.0040790187 -0.006931237
0000f0 dd ae 39 bc 38 3a 67 bb 3b c5 28 3d 60 ff ae bc
       -0.011333195 -0.0035282504 0.04120372 -0.021362007
000100 e5 47 05 bd ea 4f 14 3e 5b fa 09 3e b2 12 97 bc
       -0.032539267 0.1448361 0.1347441 -0.018441532
000110 09 24 53 bb af 0d d2 bc 06 1c 1c 3e fe 84 96 3c
       -0.0032217524 -0.02564129 0.15245065 0.018373962
000120 df af 30 bd 3c 67 60 bd 56 bb 20 bd d2 d7 9c 3c
       -0.043136474 -0.054785952 -0.039241157 0.01914588
000130 fc ef 09 bd 37 40 e9 bc 03 1f 20 bd 58 18 83 bc
       -0.033676133 -0.028473003 -0.039092075 -0.016002819
000140 41 cc 62 bd 74 61 52 bd 5b c4 a3 3c 6d 60 13 bd
       -0.055370573 -0.05136247 0.01999109 -0.03598063
000150 79 39 01 bd 07 fc 9e bc 59 84 5b 3e 58 29 da 3d
       -0.03154895 -0.019407285 0.21437205 0.10652417
000160 d2 83 9c 3c d4 6d 76 bc 4b 09 8f bd 19 8b be 3d
       0.019105826 -0.0150408335 -0.06984194 0.093038745
000170 0c e8 9b bc c2 f1 9e 3c 82 f5 2c bd 4f 49 57 bc
       -0.019031547 0.019402388 -0.042226322 -0.013140037
000180 6f 31 fd bb 6e 46 c4 bc e9 31 18 bc 54 63 09 bd
       -0.00772684 -0.023959365 -0.009289243 -0.033541992
000190 da d9 77 bd 08 f0 98 bc ab d9 27 bd ab 22 a9 3b
       -0.060510494 -0.018669143 -0.04097907 0.0051616034
0001a0 72 06 e6 bc b2 94 32 3b cf 53 6a bd 85 45 16 3b
       -0.028079245 0.0027249274 -0.057208832 0.002292962
0001b0 98 ab 59 bd de 15 24 bd 89 8e 76 3e 75 27 8b bc
       -0.05314216 -0.040059917 0.2407781 -0.016986588
0001c0 9d de e5 bc 7c 16 13 bd 1d c6 d6 3d b0 29 44 3e
       -0.028060252 -0.035910115 0.10487006 0.19156528
0001d0 46 1d 70 bd fa 6f a3 ba 5e 14 1c bd 0f bb 7d bd
       -0.058621667 -0.0012469285 -0.03810536 -0.06194597
0001e0 0e ee b7 3d 5f 74 84 bd 07 1d f1 3d 47 3d 35 bb
       0.08980952 -0.064675085 0.11773115 -0.0027654932
0001f0 cb c6 d1 3d 12 51 d6 bc 1a c8 e5 bc d9 9a 09 3d
       0.10242995 -0.026161704 -0.028049517 0.03359494
